…
I0928 20:27:59.768967  8808 net.cpp:322] The NetState phase (0) differed from the phase (1) specified by a rule in layer Accuracy1
I0928 20:27:59.768967  8808 net.cpp:58] Initializing net from parameters: 
name: "resnet_cifar10"
state {
  phase: TRAIN
  level: 0
  stage: ""
}
layer {
  name: "ImageData1"
  type: "ImageData"
  top: "ImageData1"
  top: "ImageData2"
  include {
    phase: TRAIN
  }
  transform_param {
    scale: 0.0039215689
    mirror: true
    crop_size: 112
    mean_value: 128
  }
  image_data_param {
    source: "image_list.txt"
    batch_size: 1
    shuffle: true
    new_height: 0
    new_width: 0
    is_color: false
    root_folder: ""
  }
}
layer {
  name: "Convolution1"
  type: "Convolution"
  bottom: "ImageData1"
  top: "Convolution1"
  param {
    lr_mult: 0.1
    decay_mult: 1
  }
  param {
    lr_mult: 0.2
    decay_mult: 0
  }
  convolution_param {
    num_output: 16
    pad: 2
    kernel_size: 5
    stride: 1
    weight_filler {
      type: "gaussian"
      std: 0.01
    }
    bias_filler {
      type: "constant"
      value: 0
    }
  }
}
layer {
  name: "Pooling1"
  type: "Pooling"
  bottom: "Convolution1"
  top: "Pooling1"
  pooling_param {
    pool: MAX
    kernel_size: 2
    stride: 2
  }
}
layer {
  name: "Convolution2"
  type: "Convolution"
  bottom: "Pooling1"
  top: "Convolution2"
  param {
    lr_mult: 0.1
    decay_mult: 1
  }
  param {
    lr_mult: 0.2
    decay_mult: 0
  }
  convolution_param {
    num_output: 16
    pad: 2
    kernel_size: 5
    stride: 1
    weight_filler {
      type: "gaussian"
      std: 0.01
    }
    bias_filler {
      type: "constant"
      value: 0
    }
  }
}
layer {
  name: "Pooling2"
  type: "Pooling"
  bottom: "Convolution2"
  top: "Pooling2"
  pooling_param {
    pool: MAX
    kernel_size: 2
    stride: 2
  }
}
layer {
  name: "InnerProduct1"
  type: "InnerProduct"
  bottom: "Pooling2"
  top: "InnerProduct1"
  param {
    lr_mult: 0.1
    decay_mult: 1
  }
  param {
    lr_mult: 0.2
    decay_mult: 0
  }
  inner_product_param {
    num_output: 16
    weight_filler {
      type: "gaussian"
      std: 0.01
    }
    bias_filler {
      type: "constant"
      value: 0
    }
  }
}
layer {
  name: "InnerProduct2"
  type: "InnerProduct"
  bottom: "InnerProduct1"
  top: "InnerProduct2"
  param {
    lr_mult: 0.1
    decay_mult: 1
  }
  param {
    lr_mult: 0.2
    decay_mult: 0
  }
  inner_product_param {
    num_output: 16
    weight_filler {
      type: "gaussian"
      std: 0.01
    }
    bias_filler {
      type: "constant"
      value: 0
    }
  }
}
layer {
  name: "InnerProduct3"
  type: "InnerProduct"
  bottom: "InnerProduct2"
  top: "InnerProduct3"
  param {
    lr_mult: 0.1
    decay_mult: 1
  }
  param {
    lr_mult: 0.2
    decay_mult: 0
  }
  inner_product_param {
    num_output: 6
    weight_filler {
      type: "constant"
      value: 0
    }
    bias_filler {
      type: "constant"
      value: 0
    }
  }
}
layer {
  name: "Transformer1"
  type: "Transformer"
  bottom: "ImageData1"
  bottom: "InnerProduct3"
  top: "Transformer1"
  transformer_param {
    num_theta: 6
  }
}
layer {
  name: "Convolution3"
  type: "Convolution"
  bottom: "Transformer1"
  top: "Convolution3"
  param {
    lr_mult: 1
    decay_mult: 1
  }
  param {
    lr_mult: 2
    decay_mult: 0
  }
  convolution_param {
    num_output: 16
    pad: 1
    kernel_size: 3
    stride: 1
    weight_filler {
      type: "gaussian"
      std: 0.01
    }
    bias_filler {
      type: "constant"
      value: 0
    }
  }
}
layer {
  name: "BatchNorm1"
  type: "BatchNorm"
  bottom: "Convolution3"
  top: "Convolution3"
}
layer {
  name: "Scale1"
  type: "Scale"
  bottom: "Convolution3"
  top: "Convolution3"
  scale_param {
    bias_term: true
  }
}
layer {
  name: "ReLU1"
  type: "ReLU"
  bottom: "Convolution3"
  top: "Convolution3"
}
layer {
  name: "Convolution4"
  type: "Convolution"
  bottom: "Convolution3"
  top: "Convolution4"
  param {
    lr_mult: 1
    decay_mult: 1
  }
  param {
    lr_mult: 2
    decay_mult: 0
  }
  convolution_param {
    num_output: 16
    pad: 1
    kernel_size: 3
    stride: 1
    weight_filler {
      type: "gaussian"
      std: 0.01
    }
    bias_filler {
      type: "constant"
      value: 0
    }
  }
}
layer {
  name: "BatchNorm2"
  type: "BatchNorm"
  bottom: "Convolution4"
  top: "Convolution4"
}
layer {
  name: "Scale2"
  type: "Scale"
  bottom: "Convolution4"
  top: "Convolution4"
  scale_param {
    bias_term: true
  }
}
layer {
  name: "ReLU2"
  type: "ReLU"
  bottom: "Convolution4"
  top: "Convolution4"
}
layer {
  name: "Convolution5"
  type: "Convolution"
  bottom: "Convolution4"
  top: "Convolution5"
  param {
    lr_mult: 1
    decay_mult: 1
  }
  param {
    lr_mult: 2
    decay_mult: 0
  }
  convolution_param {
    num_output: 16
    pad: 1
    kernel_size: 3
    stride: 1
    weight_filler {
      type: "gaussian"
      std: 0.01
    }
    bias_filler {
      type: "constant"
      value: 0
    }
  }
}
layer {
  name: "BatchNorm3"
  type: "BatchNorm"
  bottom: "Convolution5"
  top: "Convolution5"
}
layer {
  name: "Scale3"
  type: "Scale"
  bottom: "Convolution5"
  top: "Convolution5"
  scale_param {
    bias_term: true
  }
}
layer {
  name: "Eltwise1"
  type: "Eltwise"
  bottom: "Convolution3"
  bottom: "Convolution5"
  top: "Eltwise1"
  eltwise_param {
    operation: SUM
  }
}
layer {
  name: "Convolution6"
  type: "Convolution"
  bottom: "Eltwise1"
  top: "Convolution6"
  param {
    lr_mult: 1
    decay_mult: 1
  }
  param {
    lr_mult: 2
    decay_mult: 0
  }
  convolution_param {
    num_output: 16
    pad: 1
    kernel_size: 3
    stride: 1
    weight_filler {
      type: "gaussian"
      std: 0.01
    }
    bias_filler {
      type: "constant"
      value: 0
    }
  }
}
layer {
  name: "BatchNorm4"
  type: "BatchNorm"
  bottom: "Convolution6"
  top: "Convolution6"
}
layer {
  name: "Scale4"
  type: "Scale"
  bottom: "Convolution6"
  top: "Convolution6"
  scale_param {
    bias_term: true
  }
}
layer {
  name: "ReLU3"
  type: "ReLU"
  bottom: "Convolution6"
  top: "Convolution6"
}
layer {
  name: "Convolution7"
  type: "Convolution"
  bottom: "Convolution6"
  top: "Convolution7"
  param {
    lr_mult: 1
    decay_mult: 1
  }
  param {
    lr_mult: 2
    decay_mult: 0
  }
  convolution_param {
    num_output: 16
    pad: 1
    kernel_size: 3
    stride: 1
    weight_filler {
      type: "gaussian"
      std: 0.01
    }
    bias_filler {
      type: "constant"
      value: 0
    }
  }
}
layer {
  name: "BatchNorm5"
  type: "BatchNorm"
  bottom: "Convolution7"
  top: "Convolution7"
}
layer {
  name: "Scale5"
  type: "Scale"
  bottom: "Convolution7"
  top: "Convolution7"
  scale_param {
    bias_term: true
  }
}
layer {
  name: "Eltwise2"
  type: "Eltwise"
  bottom: "Eltwise1"
  bottom: "Convolution7"
  top: "Eltwise2"
  eltwise_param {
    operation: SUM
  }
}
layer {
  name: "Convolution8"
  type: "Convolution"
  bottom: "Eltwise2"
  top: "Convolution8"
  param {
    lr_mult: 1
    decay_mult: 1
  }
  param {
    lr_mult: 2
    decay_mult: 0
  }
  convolution_param {
    num_output: 16
    pad: 1
    kernel_size: 3
    stride: 1
    weight_filler {
      type: "gaussian"
      std: 0.01
    }
    bias_filler {
      type: "constant"
      value: 0
    }
  }
}
layer {
  name: "BatchNorm6"
  type: "BatchNorm"
  bottom: "Convolution8"
  top: "Convolution8"
}
layer {
  name: "Scale6"
  type: "Scale"
  bottom: "Convolution8"
  top: "Convolution8"
  scale_param {
    bias_term: true
  }
}
layer {
  name: "ReLU4"
  type: "ReLU"
  bottom: "Convolution8"
  top: "Convolution8"
}
layer {
  name: "Convolution9"
  type: "Convolution"
  bottom: "Convolution8"
  top: "Convolution9"
  param {
    lr_mult: 1
    decay_mult: 1
  }
  param {
    lr_mult: 2
    decay_mult: 0
  }
  convolution_param {
    num_output: 16
    pad: 1
    kernel_size: 3
    stride: 1
    weight_filler {
      type: "gaussian"
      std: 0.01
    }
    bias_filler {
      type: "constant"
      value: 0
    }
  }
}
layer {
  name: "BatchNorm7"
  type: "BatchNorm"
  bottom: "Convolution9"
  top: "Convolution9"
}
layer {
  name: "Scale7"
  type: "Scale"
  bottom: "Convolution9"
  top: "Convolution9"
  scale_param {
    bias_term: true
  }
}
layer {
  name: "Eltwise3"
  type: "Eltwise"
  bottom: "Eltwise2"
  bottom: "Convolution9"
  top: "Eltwise3"
  eltwise_param {
    operation: SUM
  }
}
layer {
  name: "Convolution10"
  type: "Convolution"
  bottom: "Eltwise3"
  top: "Convolution10"
  param {
    lr_mult: 1
    decay_mult: 1
  }
  param {
    lr_mult: 2
    decay_mult: 0
  }
  convolution_param {
    num_output: 32
    pad: 1
    kernel_size: 3
    stride: 2
    weight_filler {
      type: "gaussian"
      std: 0.01
    }
    bias_filler {
      type: "constant"
      value: 0
    }
  }
}
layer {
  name: "BatchNorm8"
  type: "BatchNorm"
  bottom: "Convolution10"
  top: "Convolution10"
}
layer {
  name: "Scale8"
  type: "Scale"
  bottom: "Convolution10"
  top: "Convolution10"
  scale_param {
    bias_term: true
  }
}
layer {
  name: "ReLU5"
  type: "ReLU"
  bottom: "Convolution10"
  top: "Convolution10"
}
layer {
  name: "Convolution11"
  type: "Convolution"
  bottom: "Convolution10"
  top: "Convolution11"
  param {
    lr_mult: 1
    decay_mult: 1
  }
  param {
    lr_mult: 2
    decay_mult: 0
  }
  convolution_param {
    num_output: 32
    pad: 1
    kernel_size: 3
    stride: 1
    weight_filler {
      type: "gaussian"
      std: 0.01
    }
    bias_filler {
      type: "constant"
      value: 0
    }
  }
}
layer {
  name: "BatchNorm9"
  type: "BatchNorm"
  bottom: "Convolution11"
  top: "Convolution11"
}
layer {
  name: "Scale9"
  type: "Scale"
  bottom: "Convolution11"
  top: "Convolution11"
  scale_param {
    bias_term: true
  }
}
layer {
  name: "Pooling3"
  type: "Pooling"
  bottom: "Eltwise3"
  top: "Pooling3"
  pooling_param {
    pool: AVE
    kernel_size: 2
    stride: 2
  }
}
layer {
  name: "PadChannel1"
  type: "PadChannel"
  bottom: "Pooling3"
  top: "PadChannel1"
  pad_channel_param {
    num_channels_to_pad: 16
  }
}
layer {
  name: "Eltwise4"
  type: "Eltwise"
  bottom: "Convolution11"
  bottom: "PadChannel1"
  top: "Eltwise4"
  eltwise_param {
    operation: SUM
  }
}
layer {
  name: "Convolution12"
  type: "Convolution"
  bottom: "Eltwise4"
  top: "Convolution12"
  param {
    lr_mult: 1
    decay_mult: 1
  }
  param {
    lr_mult: 2
    decay_mult: 0
  }
  convolution_param {
    num_output: 32
    pad: 1
    kernel_size: 3
    stride: 1
    weight_filler {
      type: "gaussian"
      std: 0.01
    }
    bias_filler {
      type: "constant"
      value: 0
    }
  }
}
layer {
  name: "BatchNorm10"
  type: "BatchNorm"
  bottom: "Convolution12"
  top: "Convolution12"
}
layer {
  name: "Scale10"
  type: "Scale"
  bottom: "Convolution12"
  top: "Convolution12"
  scale_param {
    bias_term: true
  }
}
layer {
  name: "ReLU6"
  type: "ReLU"
  bottom: "Convolution12"
  top: "Convolution12"
}
layer {
  name: "Convolution13"
  type: "Convolution"
  bottom: "Convolution12"
  top: "Convolution13"
  param {
    lr_mult: 1
    decay_mult: 1
  }
  param {
    lr_mult: 2
    decay_mult: 0
  }
  convolution_param {
    num_output: 32
    pad: 1
    kernel_size: 3
    stride: 1
    weight_filler {
      type: "gaussian"
      std: 0.01
    }
    bias_filler {
      type: "constant"
      value: 0
    }
  }
}
layer {
  name: "BatchNorm11"
  type: "BatchNorm"
  bottom: "Convolution13"
  top: "Convolution13"
}
layer {
  name: "Scale11"
  type: "Scale"
  bottom: "Convolution13"
  top: "Convolution13"
  scale_param {
    bias_term: true
  }
}
layer {
  name: "Eltwise5"
  type: "Eltwise"
  bottom: "Eltwise4"
  bottom: "Convolution13"
  top: "Eltwise5"
  eltwise_param {
    operation: SUM
  }
}
layer {
  name: "Convolution14"
  type: "Convolution"
  bottom: "Eltwise5"
  top: "Convolution14"
  param {
    lr_mult: 1
    decay_mult: 1
  }
  param {
    lr_mult: 2
    decay_mult: 0
  }
  convolution_param {
    num_output: 32
    pad: 1
    kernel_size: 3
    stride: 1
    weight_filler {
      type: "gaussian"
      std: 0.01
    }
    bias_filler {
      type: "constant"
      value: 0
    }
  }
}
layer {
  name: "BatchNorm12"
  type: "BatchNorm"
  bottom: "Convolution14"
  top: "Convolution14"
}
layer {
  name: "Scale12"
  type: "Scale"
  bottom: "Convolution14"
  top: "Convolution14"
  scale_param {
    bias_term: true
  }
}
layer {
  name: "ReLU7"
  type: "ReLU"
  bottom: "Convolution14"
  top: "Convolution14"
}
layer {
  name: "Convolution15"
  type: "Convolution"
  bottom: "Convolution14"
  top: "Convolution15"
  param {
    lr_mult: 1
    decay_mult: 1
  }
  param {
    lr_mult: 2
    decay_mult: 0
  }
  convolution_param {
    num_output: 32
    pad: 1
    kernel_size: 3
    stride: 1
    weight_filler {
      type: "gaussian"
      std: 0.01
    }
    bias_filler {
      type: "constant"
      value: 0
    }
  }
}
layer {
  name: "BatchNorm13"
  type: "BatchNorm"
  bottom: "Convolution15"
  top: "Convolution15"
}
layer {
  name: "Scale13"
  type: "Scale"
  bottom: "Convolution15"
  top: "Convolution15"
  scale_param {
    bias_term: true
  }
}
layer {
  name: "Eltwise6"
  type: "Eltwise"
  bottom: "Eltwise5"
  bottom: "Convolution15"
  top: "Eltwise6"
  eltwise_param {
    operation: SUM
  }
}
layer {
  name: "Convolution16"
  type: "Convolution"
  bottom: "Eltwise6"
  top: "Convolution16"
  param {
    lr_mult: 1
    decay_mult: 1
  }
  param {
    lr_mult: 2
    decay_mult: 0
  }
  convolution_param {
    num_output: 64
    pad: 1
    kernel_size: 3
    stride: 2
    weight_filler {
      type: "gaussian"
      std: 0.01
    }
    bias_filler {
      type: "constant"
      value: 0
    }
  }
}
layer {
  name: "BatchNorm14"
  type: "BatchNorm"
  bottom: "Convolution16"
  top: "Convolution16"
}
layer {
  name: "Scale14"
  type: "Scale"
  bottom: "Convolution16"
  top: "Convolution16"
  scale_param {
    bias_term: true
  }
}
layer {
  name: "ReLU8"
  type: "ReLU"
  bottom: "Convolution16"
  top: "Convolution16"
}
layer {
  name: "Convolution17"
  type: "Convolution"
  bottom: "Convolution16"
  top: "Convolution17"
  param {
    lr_mult: 1
    decay_mult: 1
  }
  param {
    lr_mult: 2
    decay_mult: 0
  }
  convolution_param {
    num_output: 64
    pad: 1
    kernel_size: 3
    stride: 1
    weight_filler {
      type: "gaussian"
      std: 0.01
    }
    bias_filler {
      type: "constant"
      value: 0
    }
  }
}
layer {
  name: "BatchNorm15"
  type: "BatchNorm"
  bottom: "Convolution17"
  top: "Convolution17"
}
layer {
  name: "Scale15"
  type: "Scale"
  bottom: "Convolution17"
  top: "Convolution17"
  scale_param {
    bias_term: true
  }
}
layer {
  name: "Pooling4"
  type: "Pooling"
  bottom: "Eltwise6"
  top: "Pooling4"
  pooling_param {
    pool: AVE
    kernel_size: 2
    stride: 2
  }
}
layer {
  name: "PadChannel2"
  type: "PadChannel"
  bottom: "Pooling4"
  top: "PadChannel2"
  pad_channel_param {
    num_channels_to_pad: 32
  }
}
layer {
  name: "Eltwise7"
  type: "Eltwise"
  bottom: "Convolution17"
  bottom: "PadChannel2"
  top: "Eltwise7"
  eltwise_param {
    operation: SUM
  }
}
layer {
  name: "Convolution18"
  type: "Convolution"
  bottom: "Eltwise7"
  top: "Convolution18"
  param {
    lr_mult: 1
    decay_mult: 1
  }
  param {
    lr_mult: 2
    decay_mult: 0
  }
  convolution_param {
    num_output: 64
    pad: 1
    kernel_size: 3
    stride: 1
    weight_filler {
      type: "gaussian"
      std: 0.01
    }
    bias_filler {
      type: "constant"
      value: 0
    }
  }
}
layer {
  name: "BatchNorm16"
  type: "BatchNorm"
  bottom: "Convolution18"
  top: "Convolution18"
}
layer {
  name: "Scale16"
  type: "Scale"
  bottom: "Convolution18"
  top: "Convolution18"
  scale_param {
    bias_term: true
  }
}
layer {
  name: "ReLU9"
  type: "ReLU"
  bottom: "Convolution18"
  top: "Convolution18"
}
layer {
  name: "Convolution19"
  type: "Convolution"
  bottom: "Convolution18"
  top: "Convolution19"
  param {
    lr_mult: 1
    decay_mult: 1
  }
  param {
    lr_mult: 2
    decay_mult: 0
  }
  convolution_param {
    num_output: 64
    pad: 1
    kernel_size: 3
    stride: 1
    weight_filler {
      type: "gaussian"
      std: 0.01
    }
    bias_filler {
      type: "constant"
      value: 0
    }
  }
}
layer {
  name: "BatchNorm17"
  type: "BatchNorm"
  bottom: "Convolution19"
  top: "Convolution19"
}
layer {
  name: "Scale17"
  type: "Scale"
  bottom: "Convolution19"
  top: "Convolution19"
  scale_param {
    bias_term: true
  }
}
layer {
  name: "Eltwise8"
  type: "Eltwise"
  bottom: "Eltwise7"
  bottom: "Convolution19"
  top: "Eltwise8"
  eltwise_param {
    operation: SUM
  }
}
layer {
  name: "Convolution20"
  type: "Convolution"
  bottom: "Eltwise8"
  top: "Convolution20"
  param {
    lr_mult: 1
    decay_mult: 1
  }
  param {
    lr_mult: 2
    decay_mult: 0
  }
  convolution_param {
    num_output: 64
    pad: 1
    kernel_size: 3
    stride: 1
    weight_filler {
      type: "gaussian"
      std: 0.01
    }
    bias_filler {
      type: "constant"
      value: 0
    }
  }
}
layer {
  name: "BatchNorm18"
  type: "BatchNorm"
  bottom: "Convolution20"
  top: "Convolution20"
}
layer {
  name: "Scale18"
  type: "Scale"
  bottom: "Convolution20"
  top: "Convolution20"
  scale_param {
    bias_term: true
  }
}
layer {
  name: "ReLU10"
  type: "ReLU"
  bottom: "Convolution20"
  top: "Convolution20"
}
layer {
  name: "Convolution21"
  type: "Convolution"
  bottom: "Convolution20"
  top: "Convolution21"
  param {
    lr_mult: 1
    decay_mult: 1
  }
  param {
    lr_mult: 2
    decay_mult: 0
  }
  convolution_param {
    num_output: 64
    pad: 1
    kernel_size: 3
    stride: 1
    weight_filler {
      type: "gaussian"
      std: 0.01
    }
    bias_filler {
      type: "constant"
      value: 0
    }
  }
}
layer {
  name: "BatchNorm19"
  type: "BatchNorm"
  bottom: "Convolution21"
  top: "Convolution21"
}
layer {
  name: "Scale19"
  type: "Scale"
  bottom: "Convolution21"
  top: "Convolution21"
  scale_param {
    bias_term: true
  }
}
layer {
  name: "Eltwise9"
  type: "Eltwise"
  bottom: "Eltwise8"
  bottom: "Convolution21"
  top: "Eltwise9"
  eltwise_param {
    operation: SUM
  }
}
layer {
  name: "Pooling5"
  type: "Pooling"
  bottom: "Eltwise9"
  top: "Pooling5"
  pooling_param {
    pool: AVE
    global_pooling: true
  }
}
layer {
  name: "InnerProduct4"
  type: "InnerProduct"
  bottom: "Pooling5"
  top: "InnerProduct4"
  param {
    lr_mult: 1
    decay_mult: 1
  }
  param {
    lr_mult: 2
    decay_mult: 1
  }
  inner_product_param {
    num_output: 2
    weight_filler {
      type: "gaussian"
      std: 0.01
    }
    bias_filler {
      type: "constant"
      value: 0
    }
  }
}
layer {
  name: "SoftmaxWithLoss1"
  type: "SoftmaxWithLoss"
  bottom: "InnerProduct4"
  bottom: "ImageData2"
  top: "SoftmaxWithLoss1"
}
I0928 20:27:59.831367  8808 layer_factory.cpp:58] Creating layer ImageData1
I0928 20:27:59.831367  8808 net.cpp:100] Creating Layer ImageData1
I0928 20:27:59.831367  8808 net.cpp:408] ImageData1 -> ImageData1
I0928 20:27:59.831367  8808 net.cpp:408] ImageData1 -> ImageData2
I0928 20:27:59.831367  8808 common.cpp:36] System entropy source not available, using fallback algorithm to generate seed instead.
I0928 20:27:59.831367  8808 image_data_layer.cpp:38] Opening file image_list.txt
I0928 20:27:59.831367  8808 image_data_layer.cpp:53] Shuffling data
I0928 20:27:59.831367  8808 image_data_layer.cpp:58] A total of 1 images.
I0928 20:27:59.831367  8808 image_data_layer.cpp:85] output data size: 1,1,112,112
I0928 20:27:59.831367  8808 net.cpp:150] Setting up ImageData1
I0928 20:27:59.831367  8808 net.cpp:157] Top shape: 1 1 112 112 (12544)
I0928 20:27:59.831367  8808 net.cpp:157] Top shape: 1 (1)
I0928 20:27:59.831367  8808 net.cpp:165] Memory required for data: 50180
I0928 20:27:59.831367  8808 layer_factory.cpp:58] Creating layer ImageData1_ImageData1_0_split
I0928 20:27:59.831367  8808 net.cpp:100] Creating Layer ImageData1_ImageData1_0_split
I0928 20:27:59.831367  8808 net.cpp:434] ImageData1_ImageData1_0_split <- ImageData1
I0928 20:27:59.831367  8808 net.cpp:408] ImageData1_ImageData1_0_split -> ImageData1_ImageData1_0_split_0
I0928 20:27:59.831367  8808 net.cpp:408] ImageData1_ImageData1_0_split -> ImageData1_ImageData1_0_split_1
I0928 20:27:59.846967  8808 net.cpp:150] Setting up ImageData1_ImageData1_0_split
I0928 20:27:59.846967  8808 net.cpp:157] Top shape: 1 1 112 112 (12544)
I0928 20:27:59.846967  8808 net.cpp:157] Top shape: 1 1 112 112 (12544)
I0928 20:27:59.846967  8808 net.cpp:165] Memory required for data: 150532
I0928 20:27:59.846967  8808 layer_factory.cpp:58] Creating layer Convolution1
I0928 20:27:59.846967  8808 net.cpp:100] Creating Layer Convolution1
I0928 20:27:59.846967  8808 net.cpp:434] Convolution1 <- ImageData1_ImageData1_0_split_0
I0928 20:27:59.846967  8808 net.cpp:408] Convolution1 -> Convolution1
I0928 20:27:59.846967  8808 net.cpp:150] Setting up Convolution1
I0928 20:27:59.846967  8808 net.cpp:157] Top shape: 1 16 112 112 (200704)
I0928 20:27:59.846967  8808 net.cpp:165] Memory required for data: 953348
I0928 20:27:59.846967  8808 layer_factory.cpp:58] Creating layer Pooling1
I0928 20:27:59.846967  8808 net.cpp:100] Creating Layer Pooling1
I0928 20:27:59.846967  8808 net.cpp:434] Pooling1 <- Convolution1
I0928 20:27:59.846967  8808 net.cpp:408] Pooling1 -> Pooling1
I0928 20:27:59.846967  8808 net.cpp:150] Setting up Pooling1
I0928 20:27:59.846967  8808 net.cpp:157] Top shape: 1 16 56 56 (50176)
I0928 20:27:59.846967  8808 net.cpp:165] Memory required for data: 1154052
I0928 20:27:59.846967  8808 layer_factory.cpp:58] Creating layer Convolution2
I0928 20:27:59.846967  8808 net.cpp:100] Creating Layer Convolution2
I0928 20:27:59.846967  8808 net.cpp:434] Convolution2 <- Pooling1
I0928 20:27:59.846967  8808 net.cpp:408] Convolution2 -> Convolution2
I0928 20:27:59.846967  8808 net.cpp:150] Setting up Convolution2
I0928 20:27:59.846967  8808 net.cpp:157] Top shape: 1 16 56 56 (50176)
I0928 20:27:59.846967  8808 net.cpp:165] Memory required for data: 1354756
I0928 20:27:59.846967  8808 layer_factory.cpp:58] Creating layer Pooling2
I0928 20:27:59.846967  8808 net.cpp:100] Creating Layer Pooling2
I0928 20:27:59.846967  8808 net.cpp:434] Pooling2 <- Convolution2
I0928 20:27:59.846967  8808 net.cpp:408] Pooling2 -> Pooling2
I0928 20:27:59.846967  8808 net.cpp:150] Setting up Pooling2
I0928 20:27:59.846967  8808 net.cpp:157] Top shape: 1 16 28 28 (12544)
I0928 20:27:59.846967  8808 net.cpp:165] Memory required for data: 1404932
I0928 20:27:59.846967  8808 layer_factory.cpp:58] Creating layer InnerProduct1
I0928 20:27:59.846967  8808 net.cpp:100] Creating Layer InnerProduct1
I0928 20:27:59.846967  8808 net.cpp:434] InnerProduct1 <- Pooling2
I0928 20:27:59.846967  8808 net.cpp:408] InnerProduct1 -> InnerProduct1
I0928 20:27:59.846967  8808 net.cpp:150] Setting up InnerProduct1
I0928 20:27:59.846967  8808 net.cpp:157] Top shape: 1 16 (16)
I0928 20:27:59.846967  8808 net.cpp:165] Memory required for data: 1404996
I0928 20:27:59.846967  8808 layer_factory.cpp:58] Creating layer InnerProduct2
I0928 20:27:59.846967  8808 net.cpp:100] Creating Layer InnerProduct2
I0928 20:27:59.846967  8808 net.cpp:434] InnerProduct2 <- InnerProduct1
I0928 20:27:59.846967  8808 net.cpp:408] InnerProduct2 -> InnerProduct2
I0928 20:27:59.846967  8808 net.cpp:150] Setting up InnerProduct2
I0928 20:27:59.846967  8808 net.cpp:157] Top shape: 1 16 (16)
I0928 20:27:59.846967  8808 net.cpp:165] Memory required for data: 1405060
I0928 20:27:59.846967  8808 layer_factory.cpp:58] Creating layer InnerProduct3
I0928 20:27:59.846967  8808 net.cpp:100] Creating Layer InnerProduct3
I0928 20:27:59.846967  8808 net.cpp:434] InnerProduct3 <- InnerProduct2
I0928 20:27:59.846967  8808 net.cpp:408] InnerProduct3 -> InnerProduct3
I0928 20:27:59.846967  8808 net.cpp:150] Setting up InnerProduct3
I0928 20:27:59.846967  8808 net.cpp:157] Top shape: 1 6 (6)
I0928 20:27:59.846967  8808 net.cpp:165] Memory required for data: 1405084
I0928 20:27:59.846967  8808 layer_factory.cpp:58] Creating layer Transformer1
I0928 20:27:59.846967  8808 net.cpp:100] Creating Layer Transformer1
I0928 20:27:59.846967  8808 net.cpp:434] Transformer1 <- ImageData1_ImageData1_0_split_1
I0928 20:27:59.846967  8808 net.cpp:434] Transformer1 <- InnerProduct3
I0928 20:27:59.846967  8808 net.cpp:408] Transformer1 -> Transformer1
I0928 20:27:59.846967  8808 net.cpp:150] Setting up Transformer1
I0928 20:27:59.846967  8808 net.cpp:157] Top shape: 1 1 112 112 (12544)
I0928 20:27:59.846967  8808 net.cpp:165] Memory required for data: 1455260
I0928 20:27:59.846967  8808 layer_factory.cpp:58] Creating layer Convolution3
I0928 20:27:59.846967  8808 net.cpp:100] Creating Layer Convolution3
I0928 20:27:59.846967  8808 net.cpp:434] Convolution3 <- Transformer1
I0928 20:27:59.846967  8808 net.cpp:408] Convolution3 -> Convolution3
I0928 20:27:59.846967  8808 net.cpp:150] Setting up Convolution3
I0928 20:27:59.846967  8808 net.cpp:157] Top shape: 1 16 112 112 (200704)
I0928 20:27:59.846967  8808 net.cpp:165] Memory required for data: 2258076
I0928 20:27:59.846967  8808 layer_factory.cpp:58] Creating layer BatchNorm1
I0928 20:27:59.846967  8808 net.cpp:100] Creating Layer BatchNorm1
I0928 20:27:59.846967  8808 net.cpp:434] BatchNorm1 <- Convolution3
I0928 20:27:59.846967  8808 net.cpp:395] BatchNorm1 -> Convolution3 (in-place)
I0928 20:27:59.846967  8808 net.cpp:150] Setting up BatchNorm1
I0928 20:27:59.846967  8808 net.cpp:157] Top shape: 1 16 112 112 (200704)
I0928 20:27:59.846967  8808 net.cpp:165] Memory required for data: 3060892
I0928 20:27:59.846967  8808 layer_factory.cpp:58] Creating layer Scale1
I0928 20:27:59.846967  8808 net.cpp:100] Creating Layer Scale1
I0928 20:27:59.846967  8808 net.cpp:434] Scale1 <- Convolution3
I0928 20:27:59.846967  8808 net.cpp:395] Scale1 -> Convolution3 (in-place)
I0928 20:27:59.846967  8808 layer_factory.cpp:58] Creating layer Scale1
I0928 20:27:59.846967  8808 net.cpp:150] Setting up Scale1
I0928 20:27:59.846967  8808 net.cpp:157] Top shape: 1 16 112 112 (200704)
I0928 20:27:59.846967  8808 net.cpp:165] Memory required for data: 3863708
I0928 20:27:59.846967  8808 layer_factory.cpp:58] Creating layer ReLU1
I0928 20:27:59.846967  8808 net.cpp:100] Creating Layer ReLU1
I0928 20:27:59.846967  8808 net.cpp:434] ReLU1 <- Convolution3
I0928 20:27:59.846967  8808 net.cpp:395] ReLU1 -> Convolution3 (in-place)
I0928 20:27:59.846967  8808 net.cpp:150] Setting up ReLU1
I0928 20:27:59.862567  8808 net.cpp:157] Top shape: 1 16 112 112 (200704)
I0928 20:27:59.862567  8808 net.cpp:165] Memory required for data: 4666524
I0928 20:27:59.862567  8808 layer_factory.cpp:58] Creating layer Convolution3_ReLU1_0_split
I0928 20:27:59.862567  8808 net.cpp:100] Creating Layer Convolution3_ReLU1_0_split
I0928 20:27:59.862567  8808 net.cpp:434] Convolution3_ReLU1_0_split <- Convolution3
I0928 20:27:59.862567  8808 net.cpp:408] Convolution3_ReLU1_0_split -> Convolution3_ReLU1_0_split_0
I0928 20:27:59.862567  8808 net.cpp:408] Convolution3_ReLU1_0_split -> Convolution3_ReLU1_0_split_1
I0928 20:27:59.862567  8808 net.cpp:150] Setting up Convolution3_ReLU1_0_split
I0928 20:27:59.862567  8808 net.cpp:157] Top shape: 1 16 112 112 (200704)
I0928 20:27:59.862567  8808 net.cpp:157] Top shape: 1 16 112 112 (200704)
I0928 20:27:59.862567  8808 net.cpp:165] Memory required for data: 6272156
I0928 20:27:59.862567  8808 layer_factory.cpp:58] Creating layer Convolution4
I0928 20:27:59.862567  8808 net.cpp:100] Creating Layer Convolution4
I0928 20:27:59.862567  8808 net.cpp:434] Convolution4 <- Convolution3_ReLU1_0_split_0
I0928 20:27:59.862567  8808 net.cpp:408] Convolution4 -> Convolution4
I0928 20:27:59.862567  8808 net.cpp:150] Setting up Convolution4
I0928 20:27:59.862567  8808 net.cpp:157] Top shape: 1 16 112 112 (200704)
I0928 20:27:59.862567  8808 net.cpp:165] Memory required for data: 7074972
I0928 20:27:59.862567  8808 layer_factory.cpp:58] Creating layer BatchNorm2
I0928 20:27:59.862567  8808 net.cpp:100] Creating Layer BatchNorm2
I0928 20:27:59.862567  8808 net.cpp:434] BatchNorm2 <- Convolution4
I0928 20:27:59.862567  8808 net.cpp:395] BatchNorm2 -> Convolution4 (in-place)
I0928 20:27:59.862567  8808 net.cpp:150] Setting up BatchNorm2
I0928 20:27:59.862567  8808 net.cpp:157] Top shape: 1 16 112 112 (200704)
I0928 20:27:59.862567  8808 net.cpp:165] Memory required for data: 7877788
I0928 20:27:59.862567  8808 layer_factory.cpp:58] Creating layer Scale2
I0928 20:27:59.862567  8808 net.cpp:100] Creating Layer Scale2
I0928 20:27:59.862567  8808 net.cpp:434] Scale2 <- Convolution4
I0928 20:27:59.862567  8808 net.cpp:395] Scale2 -> Convolution4 (in-place)
I0928 20:27:59.862567  8808 layer_factory.cpp:58] Creating layer Scale2
I0928 20:27:59.862567  8808 net.cpp:150] Setting up Scale2
I0928 20:27:59.862567  8808 net.cpp:157] Top shape: 1 16 112 112 (200704)
I0928 20:27:59.862567  8808 net.cpp:165] Memory required for data: 8680604
I0928 20:27:59.862567  8808 layer_factory.cpp:58] Creating layer ReLU2
I0928 20:27:59.862567  8808 net.cpp:100] Creating Layer ReLU2
I0928 20:27:59.862567  8808 net.cpp:434] ReLU2 <- Convolution4
I0928 20:27:59.862567  8808 net.cpp:395] ReLU2 -> Convolution4 (in-place)
I0928 20:27:59.862567  8808 net.cpp:150] Setting up ReLU2
I0928 20:27:59.862567  8808 net.cpp:157] Top shape: 1 16 112 112 (200704)
I0928 20:27:59.862567  8808 net.cpp:165] Memory required for data: 9483420
I0928 20:27:59.862567  8808 layer_factory.cpp:58] Creating layer Convolution5
I0928 20:27:59.862567  8808 net.cpp:100] Creating Layer Convolution5
I0928 20:27:59.862567  8808 net.cpp:434] Convolution5 <- Convolution4
I0928 20:27:59.862567  8808 net.cpp:408] Convolution5 -> Convolution5
I0928 20:27:59.862567  8808 net.cpp:150] Setting up Convolution5
I0928 20:27:59.862567  8808 net.cpp:157] Top shape: 1 16 112 112 (200704)
I0928 20:27:59.862567  8808 net.cpp:165] Memory required for data: 10286236
I0928 20:27:59.862567  8808 layer_factory.cpp:58] Creating layer BatchNorm3
I0928 20:27:59.862567  8808 net.cpp:100] Creating Layer BatchNorm3
I0928 20:27:59.862567  8808 net.cpp:434] BatchNorm3 <- Convolution5
I0928 20:27:59.862567  8808 net.cpp:395] BatchNorm3 -> Convolution5 (in-place)
I0928 20:27:59.862567  8808 net.cpp:150] Setting up BatchNorm3
I0928 20:27:59.862567  8808 net.cpp:157] Top shape: 1 16 112 112 (200704)
I0928 20:27:59.862567  8808 net.cpp:165] Memory required for data: 11089052
I0928 20:27:59.862567  8808 layer_factory.cpp:58] Creating layer Scale3
I0928 20:27:59.862567  8808 net.cpp:100] Creating Layer Scale3
I0928 20:27:59.862567  8808 net.cpp:434] Scale3 <- Convolution5
I0928 20:27:59.862567  8808 net.cpp:395] Scale3 -> Convolution5 (in-place)
I0928 20:27:59.862567  8808 layer_factory.cpp:58] Creating layer Scale3
I0928 20:27:59.862567  8808 net.cpp:150] Setting up Scale3
I0928 20:27:59.862567  8808 net.cpp:157] Top shape: 1 16 112 112 (200704)
I0928 20:27:59.862567  8808 net.cpp:165] Memory required for data: 11891868
I0928 20:27:59.862567  8808 layer_factory.cpp:58] Creating layer Eltwise1
I0928 20:27:59.862567  8808 net.cpp:100] Creating Layer Eltwise1
I0928 20:27:59.862567  8808 net.cpp:434] Eltwise1 <- Convolution3_ReLU1_0_split_1
I0928 20:27:59.862567  8808 net.cpp:434] Eltwise1 <- Convolution5
I0928 20:27:59.862567  8808 net.cpp:408] Eltwise1 -> Eltwise1
I0928 20:27:59.862567  8808 net.cpp:150] Setting up Eltwise1
I0928 20:27:59.862567  8808 net.cpp:157] Top shape: 1 16 112 112 (200704)
I0928 20:27:59.862567  8808 net.cpp:165] Memory required for data: 12694684
I0928 20:27:59.862567  8808 layer_factory.cpp:58] Creating layer Eltwise1_Eltwise1_0_split
I0928 20:27:59.862567  8808 net.cpp:100] Creating Layer Eltwise1_Eltwise1_0_split
I0928 20:27:59.862567  8808 net.cpp:434] Eltwise1_Eltwise1_0_split <- Eltwise1
I0928 20:27:59.862567  8808 net.cpp:408] Eltwise1_Eltwise1_0_split -> Eltwise1_Eltwise1_0_split_0
I0928 20:27:59.862567  8808 net.cpp:408] Eltwise1_Eltwise1_0_split -> Eltwise1_Eltwise1_0_split_1
I0928 20:27:59.862567  8808 net.cpp:150] Setting up Eltwise1_Eltwise1_0_split
I0928 20:27:59.862567  8808 net.cpp:157] Top shape: 1 16 112 112 (200704)
I0928 20:27:59.862567  8808 net.cpp:157] Top shape: 1 16 112 112 (200704)
I0928 20:27:59.862567  8808 net.cpp:165] Memory required for data: 14300316
I0928 20:27:59.862567  8808 layer_factory.cpp:58] Creating layer Convolution6
I0928 20:27:59.862567  8808 net.cpp:100] Creating Layer Convolution6
I0928 20:27:59.862567  8808 net.cpp:434] Convolution6 <- Eltwise1_Eltwise1_0_split_0
I0928 20:27:59.862567  8808 net.cpp:408] Convolution6 -> Convolution6
I0928 20:27:59.862567  8808 net.cpp:150] Setting up Convolution6
I0928 20:27:59.862567  8808 net.cpp:157] Top shape: 1 16 112 112 (200704)
I0928 20:27:59.862567  8808 net.cpp:165] Memory required for data: 15103132
I0928 20:27:59.862567  8808 layer_factory.cpp:58] Creating layer BatchNorm4
I0928 20:27:59.862567  8808 net.cpp:100] Creating Layer BatchNorm4
I0928 20:27:59.862567  8808 net.cpp:434] BatchNorm4 <- Convolution6
I0928 20:27:59.862567  8808 net.cpp:395] BatchNorm4 -> Convolution6 (in-place)
I0928 20:27:59.862567  8808 net.cpp:150] Setting up BatchNorm4
I0928 20:27:59.862567  8808 net.cpp:157] Top shape: 1 16 112 112 (200704)
I0928 20:27:59.862567  8808 net.cpp:165] Memory required for data: 15905948
I0928 20:27:59.862567  8808 layer_factory.cpp:58] Creating layer Scale4
I0928 20:27:59.862567  8808 net.cpp:100] Creating Layer Scale4
I0928 20:27:59.862567  8808 net.cpp:434] Scale4 <- Convolution6
I0928 20:27:59.862567  8808 net.cpp:395] Scale4 -> Convolution6 (in-place)
I0928 20:27:59.862567  8808 layer_factory.cpp:58] Creating layer Scale4
I0928 20:27:59.862567  8808 net.cpp:150] Setting up Scale4
I0928 20:27:59.862567  8808 net.cpp:157] Top shape: 1 16 112 112 (200704)
I0928 20:27:59.862567  8808 net.cpp:165] Memory required for data: 16708764
I0928 20:27:59.862567  8808 layer_factory.cpp:58] Creating layer ReLU3
I0928 20:27:59.862567  8808 net.cpp:100] Creating Layer ReLU3
I0928 20:27:59.862567  8808 net.cpp:434] ReLU3 <- Convolution6
I0928 20:27:59.862567  8808 net.cpp:395] ReLU3 -> Convolution6 (in-place)
I0928 20:27:59.862567  8808 net.cpp:150] Setting up ReLU3
I0928 20:27:59.862567  8808 net.cpp:157] Top shape: 1 16 112 112 (200704)
I0928 20:27:59.862567  8808 net.cpp:165] Memory required for data: 17511580
I0928 20:27:59.862567  8808 layer_factory.cpp:58] Creating layer Convolution7
I0928 20:27:59.862567  8808 net.cpp:100] Creating Layer Convolution7
I0928 20:27:59.862567  8808 net.cpp:434] Convolution7 <- Convolution6
I0928 20:27:59.862567  8808 net.cpp:408] Convolution7 -> Convolution7
I0928 20:27:59.862567  8808 net.cpp:150] Setting up Convolution7
I0928 20:27:59.862567  8808 net.cpp:157] Top shape: 1 16 112 112 (200704)
I0928 20:27:59.862567  8808 net.cpp:165] Memory required for data: 18314396
I0928 20:27:59.862567  8808 layer_factory.cpp:58] Creating layer BatchNorm5
I0928 20:27:59.862567  8808 net.cpp:100] Creating Layer BatchNorm5
I0928 20:27:59.862567  8808 net.cpp:434] BatchNorm5 <- Convolution7
I0928 20:27:59.862567  8808 net.cpp:395] BatchNorm5 -> Convolution7 (in-place)
I0928 20:27:59.862567  8808 net.cpp:150] Setting up BatchNorm5
I0928 20:27:59.862567  8808 net.cpp:157] Top shape: 1 16 112 112 (200704)
I0928 20:27:59.862567  8808 net.cpp:165] Memory required for data: 19117212
I0928 20:27:59.862567  8808 layer_factory.cpp:58] Creating layer Scale5
I0928 20:27:59.862567  8808 net.cpp:100] Creating Layer Scale5
I0928 20:27:59.862567  8808 net.cpp:434] Scale5 <- Convolution7
I0928 20:27:59.862567  8808 net.cpp:395] Scale5 -> Convolution7 (in-place)
I0928 20:27:59.862567  8808 layer_factory.cpp:58] Creating layer Scale5
I0928 20:27:59.862567  8808 net.cpp:150] Setting up Scale5
I0928 20:27:59.862567  8808 net.cpp:157] Top shape: 1 16 112 112 (200704)
I0928 20:27:59.862567  8808 net.cpp:165] Memory required for data: 19920028
I0928 20:27:59.862567  8808 layer_factory.cpp:58] Creating layer Eltwise2
I0928 20:27:59.862567  8808 net.cpp:100] Creating Layer Eltwise2
I0928 20:27:59.862567  8808 net.cpp:434] Eltwise2 <- Eltwise1_Eltwise1_0_split_1
I0928 20:27:59.862567  8808 net.cpp:434] Eltwise2 <- Convolution7
I0928 20:27:59.862567  8808 net.cpp:408] Eltwise2 -> Eltwise2
I0928 20:27:59.862567  8808 net.cpp:150] Setting up Eltwise2
I0928 20:27:59.862567  8808 net.cpp:157] Top shape: 1 16 112 112 (200704)
I0928 20:27:59.878167  8808 net.cpp:165] Memory required for data: 20722844
I0928 20:27:59.878167  8808 layer_factory.cpp:58] Creating layer Eltwise2_Eltwise2_0_split
I0928 20:27:59.878167  8808 net.cpp:100] Creating Layer Eltwise2_Eltwise2_0_split
I0928 20:27:59.878167  8808 net.cpp:434] Eltwise2_Eltwise2_0_split <- Eltwise2
I0928 20:27:59.878167  8808 net.cpp:408] Eltwise2_Eltwise2_0_split -> Eltwise2_Eltwise2_0_split_0
I0928 20:27:59.878167  8808 net.cpp:408] Eltwise2_Eltwise2_0_split -> Eltwise2_Eltwise2_0_split_1
I0928 20:27:59.878167  8808 net.cpp:150] Setting up Eltwise2_Eltwise2_0_split
I0928 20:27:59.878167  8808 net.cpp:157] Top shape: 1 16 112 112 (200704)
I0928 20:27:59.878167  8808 net.cpp:157] Top shape: 1 16 112 112 (200704)
I0928 20:27:59.878167  8808 net.cpp:165] Memory required for data: 22328476
I0928 20:27:59.878167  8808 layer_factory.cpp:58] Creating layer Convolution8
I0928 20:27:59.878167  8808 net.cpp:100] Creating Layer Convolution8
I0928 20:27:59.878167  8808 net.cpp:434] Convolution8 <- Eltwise2_Eltwise2_0_split_0
I0928 20:27:59.878167  8808 net.cpp:408] Convolution8 -> Convolution8
I0928 20:27:59.878167  8808 net.cpp:150] Setting up Convolution8
I0928 20:27:59.878167  8808 net.cpp:157] Top shape: 1 16 112 112 (200704)
I0928 20:27:59.878167  8808 net.cpp:165] Memory required for data: 23131292
I0928 20:27:59.878167  8808 layer_factory.cpp:58] Creating layer BatchNorm6
I0928 20:27:59.878167  8808 net.cpp:100] Creating Layer BatchNorm6
I0928 20:27:59.878167  8808 net.cpp:434] BatchNorm6 <- Convolution8
I0928 20:27:59.878167  8808 net.cpp:395] BatchNorm6 -> Convolution8 (in-place)
I0928 20:27:59.878167  8808 net.cpp:150] Setting up BatchNorm6
I0928 20:27:59.878167  8808 net.cpp:157] Top shape: 1 16 112 112 (200704)
I0928 20:27:59.878167  8808 net.cpp:165] Memory required for data: 23934108
I0928 20:27:59.878167  8808 layer_factory.cpp:58] Creating layer Scale6
I0928 20:27:59.878167  8808 net.cpp:100] Creating Layer Scale6
I0928 20:27:59.878167  8808 net.cpp:434] Scale6 <- Convolution8
I0928 20:27:59.878167  8808 net.cpp:395] Scale6 -> Convolution8 (in-place)
I0928 20:27:59.878167  8808 layer_factory.cpp:58] Creating layer Scale6
I0928 20:27:59.878167  8808 net.cpp:150] Setting up Scale6
I0928 20:27:59.878167  8808 net.cpp:157] Top shape: 1 16 112 112 (200704)
I0928 20:27:59.878167  8808 net.cpp:165] Memory required for data: 24736924
I0928 20:27:59.878167  8808 layer_factory.cpp:58] Creating layer ReLU4
I0928 20:27:59.878167  8808 net.cpp:100] Creating Layer ReLU4
I0928 20:27:59.878167  8808 net.cpp:434] ReLU4 <- Convolution8
I0928 20:27:59.878167  8808 net.cpp:395] ReLU4 -> Convolution8 (in-place)
I0928 20:27:59.878167  8808 net.cpp:150] Setting up ReLU4
I0928 20:27:59.878167  8808 net.cpp:157] Top shape: 1 16 112 112 (200704)
I0928 20:27:59.878167  8808 net.cpp:165] Memory required for data: 25539740
I0928 20:27:59.878167  8808 layer_factory.cpp:58] Creating layer Convolution9
I0928 20:27:59.878167  8808 net.cpp:100] Creating Layer Convolution9
I0928 20:27:59.878167  8808 net.cpp:434] Convolution9 <- Convolution8
I0928 20:27:59.878167  8808 net.cpp:408] Convolution9 -> Convolution9
I0928 20:27:59.878167  8808 net.cpp:150] Setting up Convolution9
I0928 20:27:59.878167  8808 net.cpp:157] Top shape: 1 16 112 112 (200704)
I0928 20:27:59.878167  8808 net.cpp:165] Memory required for data: 26342556
I0928 20:27:59.878167  8808 layer_factory.cpp:58] Creating layer BatchNorm7
I0928 20:27:59.878167  8808 net.cpp:100] Creating Layer BatchNorm7
I0928 20:27:59.878167  8808 net.cpp:434] BatchNorm7 <- Convolution9
I0928 20:27:59.878167  8808 net.cpp:395] BatchNorm7 -> Convolution9 (in-place)
I0928 20:27:59.878167  8808 net.cpp:150] Setting up BatchNorm7
I0928 20:27:59.878167  8808 net.cpp:157] Top shape: 1 16 112 112 (200704)
I0928 20:27:59.878167  8808 net.cpp:165] Memory required for data: 27145372
I0928 20:27:59.878167  8808 layer_factory.cpp:58] Creating layer Scale7
I0928 20:27:59.878167  8808 net.cpp:100] Creating Layer Scale7
I0928 20:27:59.878167  8808 net.cpp:434] Scale7 <- Convolution9
I0928 20:27:59.878167  8808 net.cpp:395] Scale7 -> Convolution9 (in-place)
I0928 20:27:59.878167  8808 layer_factory.cpp:58] Creating layer Scale7
I0928 20:27:59.878167  8808 net.cpp:150] Setting up Scale7
I0928 20:27:59.878167  8808 net.cpp:157] Top shape: 1 16 112 112 (200704)
I0928 20:27:59.878167  8808 net.cpp:165] Memory required for data: 27948188
I0928 20:27:59.878167  8808 layer_factory.cpp:58] Creating layer Eltwise3
I0928 20:27:59.878167  8808 net.cpp:100] Creating Layer Eltwise3
I0928 20:27:59.878167  8808 net.cpp:434] Eltwise3 <- Eltwise2_Eltwise2_0_split_1
I0928 20:27:59.878167  8808 net.cpp:434] Eltwise3 <- Convolution9
I0928 20:27:59.878167  8808 net.cpp:408] Eltwise3 -> Eltwise3
I0928 20:27:59.878167  8808 net.cpp:150] Setting up Eltwise3
I0928 20:27:59.878167  8808 net.cpp:157] Top shape: 1 16 112 112 (200704)
I0928 20:27:59.878167  8808 net.cpp:165] Memory required for data: 28751004
I0928 20:27:59.878167  8808 layer_factory.cpp:58] Creating layer Eltwise3_Eltwise3_0_split
I0928 20:27:59.878167  8808 net.cpp:100] Creating Layer Eltwise3_Eltwise3_0_split
I0928 20:27:59.878167  8808 net.cpp:434] Eltwise3_Eltwise3_0_split <- Eltwise3
I0928 20:27:59.878167  8808 net.cpp:408] Eltwise3_Eltwise3_0_split -> Eltwise3_Eltwise3_0_split_0
I0928 20:27:59.878167  8808 net.cpp:408] Eltwise3_Eltwise3_0_split -> Eltwise3_Eltwise3_0_split_1
I0928 20:27:59.878167  8808 net.cpp:150] Setting up Eltwise3_Eltwise3_0_split
I0928 20:27:59.878167  8808 net.cpp:157] Top shape: 1 16 112 112 (200704)
I0928 20:27:59.878167  8808 net.cpp:157] Top shape: 1 16 112 112 (200704)
I0928 20:27:59.878167  8808 net.cpp:165] Memory required for data: 30356636
I0928 20:27:59.878167  8808 layer_factory.cpp:58] Creating layer Convolution10
I0928 20:27:59.878167  8808 net.cpp:100] Creating Layer Convolution10
I0928 20:27:59.878167  8808 net.cpp:434] Convolution10 <- Eltwise3_Eltwise3_0_split_0
I0928 20:27:59.878167  8808 net.cpp:408] Convolution10 -> Convolution10
I0928 20:27:59.878167  8808 net.cpp:150] Setting up Convolution10
I0928 20:27:59.878167  8808 net.cpp:157] Top shape: 1 32 56 56 (100352)
I0928 20:27:59.878167  8808 net.cpp:165] Memory required for data: 30758044
I0928 20:27:59.878167  8808 layer_factory.cpp:58] Creating layer BatchNorm8
I0928 20:27:59.878167  8808 net.cpp:100] Creating Layer BatchNorm8
I0928 20:27:59.878167  8808 net.cpp:434] BatchNorm8 <- Convolution10
I0928 20:27:59.878167  8808 net.cpp:395] BatchNorm8 -> Convolution10 (in-place)
I0928 20:27:59.878167  8808 net.cpp:150] Setting up BatchNorm8
I0928 20:27:59.878167  8808 net.cpp:157] Top shape: 1 32 56 56 (100352)
I0928 20:27:59.878167  8808 net.cpp:165] Memory required for data: 31159452
I0928 20:27:59.878167  8808 layer_factory.cpp:58] Creating layer Scale8
I0928 20:27:59.878167  8808 net.cpp:100] Creating Layer Scale8
I0928 20:27:59.878167  8808 net.cpp:434] Scale8 <- Convolution10
I0928 20:27:59.878167  8808 net.cpp:395] Scale8 -> Convolution10 (in-place)
I0928 20:27:59.878167  8808 layer_factory.cpp:58] Creating layer Scale8
I0928 20:27:59.878167  8808 net.cpp:150] Setting up Scale8
I0928 20:27:59.878167  8808 net.cpp:157] Top shape: 1 32 56 56 (100352)
I0928 20:27:59.878167  8808 net.cpp:165] Memory required for data: 31560860
I0928 20:27:59.878167  8808 layer_factory.cpp:58] Creating layer ReLU5
I0928 20:27:59.878167  8808 net.cpp:100] Creating Layer ReLU5
I0928 20:27:59.878167  8808 net.cpp:434] ReLU5 <- Convolution10
I0928 20:27:59.878167  8808 net.cpp:395] ReLU5 -> Convolution10 (in-place)
I0928 20:27:59.878167  8808 net.cpp:150] Setting up ReLU5
I0928 20:27:59.878167  8808 net.cpp:157] Top shape: 1 32 56 56 (100352)
I0928 20:27:59.878167  8808 net.cpp:165] Memory required for data: 31962268
I0928 20:27:59.878167  8808 layer_factory.cpp:58] Creating layer Convolution11
I0928 20:27:59.878167  8808 net.cpp:100] Creating Layer Convolution11
I0928 20:27:59.878167  8808 net.cpp:434] Convolution11 <- Convolution10
I0928 20:27:59.878167  8808 net.cpp:408] Convolution11 -> Convolution11
I0928 20:27:59.878167  8808 net.cpp:150] Setting up Convolution11
I0928 20:27:59.878167  8808 net.cpp:157] Top shape: 1 32 56 56 (100352)
I0928 20:27:59.878167  8808 net.cpp:165] Memory required for data: 32363676
I0928 20:27:59.878167  8808 layer_factory.cpp:58] Creating layer BatchNorm9
I0928 20:27:59.878167  8808 net.cpp:100] Creating Layer BatchNorm9
I0928 20:27:59.878167  8808 net.cpp:434] BatchNorm9 <- Convolution11
I0928 20:27:59.878167  8808 net.cpp:395] BatchNorm9 -> Convolution11 (in-place)
I0928 20:27:59.878167  8808 net.cpp:150] Setting up BatchNorm9
I0928 20:27:59.878167  8808 net.cpp:157] Top shape: 1 32 56 56 (100352)
I0928 20:27:59.878167  8808 net.cpp:165] Memory required for data: 32765084
I0928 20:27:59.878167  8808 layer_factory.cpp:58] Creating layer Scale9
I0928 20:27:59.878167  8808 net.cpp:100] Creating Layer Scale9
I0928 20:27:59.878167  8808 net.cpp:434] Scale9 <- Convolution11
I0928 20:27:59.878167  8808 net.cpp:395] Scale9 -> Convolution11 (in-place)
I0928 20:27:59.878167  8808 layer_factory.cpp:58] Creating layer Scale9
I0928 20:27:59.878167  8808 net.cpp:150] Setting up Scale9
I0928 20:27:59.878167  8808 net.cpp:157] Top shape: 1 32 56 56 (100352)
I0928 20:27:59.878167  8808 net.cpp:165] Memory required for data: 33166492
I0928 20:27:59.878167  8808 layer_factory.cpp:58] Creating layer Pooling3
I0928 20:27:59.878167  8808 net.cpp:100] Creating Layer Pooling3
I0928 20:27:59.878167  8808 net.cpp:434] Pooling3 <- Eltwise3_Eltwise3_0_split_1
I0928 20:27:59.878167  8808 net.cpp:408] Pooling3 -> Pooling3
I0928 20:27:59.893767  8808 net.cpp:150] Setting up Pooling3
I0928 20:27:59.893767  8808 net.cpp:157] Top shape: 1 16 56 56 (50176)
I0928 20:27:59.893767  8808 net.cpp:165] Memory required for data: 33367196
I0928 20:27:59.893767  8808 layer_factory.cpp:58] Creating layer PadChannel1
I0928 20:27:59.893767  8808 net.cpp:100] Creating Layer PadChannel1
I0928 20:27:59.893767  8808 net.cpp:434] PadChannel1 <- Pooling3
I0928 20:27:59.893767  8808 net.cpp:408] PadChannel1 -> PadChannel1
I0928 20:27:59.893767  8808 net.cpp:150] Setting up PadChannel1
I0928 20:27:59.893767  8808 net.cpp:157] Top shape: 1 32 56 56 (100352)
I0928 20:27:59.893767  8808 net.cpp:165] Memory required for data: 33768604
I0928 20:27:59.893767  8808 layer_factory.cpp:58] Creating layer Eltwise4
I0928 20:27:59.893767  8808 net.cpp:100] Creating Layer Eltwise4
I0928 20:27:59.893767  8808 net.cpp:434] Eltwise4 <- Convolution11
I0928 20:27:59.893767  8808 net.cpp:434] Eltwise4 <- PadChannel1
I0928 20:27:59.893767  8808 net.cpp:408] Eltwise4 -> Eltwise4
I0928 20:27:59.893767  8808 net.cpp:150] Setting up Eltwise4
I0928 20:27:59.893767  8808 net.cpp:157] Top shape: 1 32 56 56 (100352)
I0928 20:27:59.893767  8808 net.cpp:165] Memory required for data: 34170012
I0928 20:27:59.893767  8808 layer_factory.cpp:58] Creating layer Eltwise4_Eltwise4_0_split
I0928 20:27:59.893767  8808 net.cpp:100] Creating Layer Eltwise4_Eltwise4_0_split
I0928 20:27:59.893767  8808 net.cpp:434] Eltwise4_Eltwise4_0_split <- Eltwise4
I0928 20:27:59.893767  8808 net.cpp:408] Eltwise4_Eltwise4_0_split -> Eltwise4_Eltwise4_0_split_0
I0928 20:27:59.893767  8808 net.cpp:408] Eltwise4_Eltwise4_0_split -> Eltwise4_Eltwise4_0_split_1
I0928 20:27:59.893767  8808 net.cpp:150] Setting up Eltwise4_Eltwise4_0_split
I0928 20:27:59.893767  8808 net.cpp:157] Top shape: 1 32 56 56 (100352)
I0928 20:27:59.893767  8808 net.cpp:157] Top shape: 1 32 56 56 (100352)
I0928 20:27:59.893767  8808 net.cpp:165] Memory required for data: 34972828
I0928 20:27:59.893767  8808 layer_factory.cpp:58] Creating layer Convolution12
I0928 20:27:59.893767  8808 net.cpp:100] Creating Layer Convolution12
I0928 20:27:59.893767  8808 net.cpp:434] Convolution12 <- Eltwise4_Eltwise4_0_split_0
I0928 20:27:59.893767  8808 net.cpp:408] Convolution12 -> Convolution12
I0928 20:27:59.893767  8808 net.cpp:150] Setting up Convolution12
I0928 20:27:59.893767  8808 net.cpp:157] Top shape: 1 32 56 56 (100352)
I0928 20:27:59.893767  8808 net.cpp:165] Memory required for data: 35374236
I0928 20:27:59.893767  8808 layer_factory.cpp:58] Creating layer BatchNorm10
I0928 20:27:59.893767  8808 net.cpp:100] Creating Layer BatchNorm10
I0928 20:27:59.893767  8808 net.cpp:434] BatchNorm10 <- Convolution12
I0928 20:27:59.893767  8808 net.cpp:395] BatchNorm10 -> Convolution12 (in-place)
I0928 20:27:59.893767  8808 net.cpp:150] Setting up BatchNorm10
I0928 20:27:59.893767  8808 net.cpp:157] Top shape: 1 32 56 56 (100352)
I0928 20:27:59.893767  8808 net.cpp:165] Memory required for data: 35775644
I0928 20:27:59.893767  8808 layer_factory.cpp:58] Creating layer Scale10
I0928 20:27:59.893767  8808 net.cpp:100] Creating Layer Scale10
I0928 20:27:59.893767  8808 net.cpp:434] Scale10 <- Convolution12
I0928 20:27:59.893767  8808 net.cpp:395] Scale10 -> Convolution12 (in-place)
I0928 20:27:59.893767  8808 layer_factory.cpp:58] Creating layer Scale10
I0928 20:27:59.893767  8808 net.cpp:150] Setting up Scale10
I0928 20:27:59.893767  8808 net.cpp:157] Top shape: 1 32 56 56 (100352)
I0928 20:27:59.893767  8808 net.cpp:165] Memory required for data: 36177052
I0928 20:27:59.893767  8808 layer_factory.cpp:58] Creating layer ReLU6
I0928 20:27:59.893767  8808 net.cpp:100] Creating Layer ReLU6
I0928 20:27:59.893767  8808 net.cpp:434] ReLU6 <- Convolution12
I0928 20:27:59.893767  8808 net.cpp:395] ReLU6 -> Convolution12 (in-place)
I0928 20:27:59.893767  8808 net.cpp:150] Setting up ReLU6
I0928 20:27:59.893767  8808 net.cpp:157] Top shape: 1 32 56 56 (100352)
I0928 20:27:59.893767  8808 net.cpp:165] Memory required for data: 36578460
I0928 20:27:59.893767  8808 layer_factory.cpp:58] Creating layer Convolution13
I0928 20:27:59.893767  8808 net.cpp:100] Creating Layer Convolution13
I0928 20:27:59.893767  8808 net.cpp:434] Convolution13 <- Convolution12
I0928 20:27:59.893767  8808 net.cpp:408] Convolution13 -> Convolution13
I0928 20:27:59.893767  8808 net.cpp:150] Setting up Convolution13
I0928 20:27:59.893767  8808 net.cpp:157] Top shape: 1 32 56 56 (100352)
I0928 20:27:59.893767  8808 net.cpp:165] Memory required for data: 36979868
I0928 20:27:59.893767  8808 layer_factory.cpp:58] Creating layer BatchNorm11
I0928 20:27:59.893767  8808 net.cpp:100] Creating Layer BatchNorm11
I0928 20:27:59.893767  8808 net.cpp:434] BatchNorm11 <- Convolution13
I0928 20:27:59.893767  8808 net.cpp:395] BatchNorm11 -> Convolution13 (in-place)
I0928 20:27:59.893767  8808 net.cpp:150] Setting up BatchNorm11
I0928 20:27:59.893767  8808 net.cpp:157] Top shape: 1 32 56 56 (100352)
I0928 20:27:59.893767  8808 net.cpp:165] Memory required for data: 37381276
I0928 20:27:59.893767  8808 layer_factory.cpp:58] Creating layer Scale11
I0928 20:27:59.893767  8808 net.cpp:100] Creating Layer Scale11
I0928 20:27:59.893767  8808 net.cpp:434] Scale11 <- Convolution13
I0928 20:27:59.893767  8808 net.cpp:395] Scale11 -> Convolution13 (in-place)
I0928 20:27:59.893767  8808 layer_factory.cpp:58] Creating layer Scale11
I0928 20:27:59.893767  8808 net.cpp:150] Setting up Scale11
I0928 20:27:59.893767  8808 net.cpp:157] Top shape: 1 32 56 56 (100352)
I0928 20:27:59.893767  8808 net.cpp:165] Memory required for data: 37782684
I0928 20:27:59.893767  8808 layer_factory.cpp:58] Creating layer Eltwise5
I0928 20:27:59.893767  8808 net.cpp:100] Creating Layer Eltwise5
I0928 20:27:59.893767  8808 net.cpp:434] Eltwise5 <- Eltwise4_Eltwise4_0_split_1
I0928 20:27:59.893767  8808 net.cpp:434] Eltwise5 <- Convolution13
I0928 20:27:59.893767  8808 net.cpp:408] Eltwise5 -> Eltwise5
I0928 20:27:59.893767  8808 net.cpp:150] Setting up Eltwise5
I0928 20:27:59.893767  8808 net.cpp:157] Top shape: 1 32 56 56 (100352)
I0928 20:27:59.893767  8808 net.cpp:165] Memory required for data: 38184092
I0928 20:27:59.893767  8808 layer_factory.cpp:58] Creating layer Eltwise5_Eltwise5_0_split
I0928 20:27:59.893767  8808 net.cpp:100] Creating Layer Eltwise5_Eltwise5_0_split
I0928 20:27:59.893767  8808 net.cpp:434] Eltwise5_Eltwise5_0_split <- Eltwise5
I0928 20:27:59.893767  8808 net.cpp:408] Eltwise5_Eltwise5_0_split -> Eltwise5_Eltwise5_0_split_0
I0928 20:27:59.893767  8808 net.cpp:408] Eltwise5_Eltwise5_0_split -> Eltwise5_Eltwise5_0_split_1
I0928 20:27:59.893767  8808 net.cpp:150] Setting up Eltwise5_Eltwise5_0_split
I0928 20:27:59.893767  8808 net.cpp:157] Top shape: 1 32 56 56 (100352)
I0928 20:27:59.893767  8808 net.cpp:157] Top shape: 1 32 56 56 (100352)
I0928 20:27:59.893767  8808 net.cpp:165] Memory required for data: 38986908
I0928 20:27:59.893767  8808 layer_factory.cpp:58] Creating layer Convolution14
I0928 20:27:59.893767  8808 net.cpp:100] Creating Layer Convolution14
I0928 20:27:59.893767  8808 net.cpp:434] Convolution14 <- Eltwise5_Eltwise5_0_split_0
I0928 20:27:59.893767  8808 net.cpp:408] Convolution14 -> Convolution14
I0928 20:27:59.893767  8808 net.cpp:150] Setting up Convolution14
I0928 20:27:59.893767  8808 net.cpp:157] Top shape: 1 32 56 56 (100352)
I0928 20:27:59.893767  8808 net.cpp:165] Memory required for data: 39388316
I0928 20:27:59.893767  8808 layer_factory.cpp:58] Creating layer BatchNorm12
I0928 20:27:59.893767  8808 net.cpp:100] Creating Layer BatchNorm12
I0928 20:27:59.893767  8808 net.cpp:434] BatchNorm12 <- Convolution14
I0928 20:27:59.893767  8808 net.cpp:395] BatchNorm12 -> Convolution14 (in-place)
I0928 20:27:59.893767  8808 net.cpp:150] Setting up BatchNorm12
I0928 20:27:59.893767  8808 net.cpp:157] Top shape: 1 32 56 56 (100352)
I0928 20:27:59.893767  8808 net.cpp:165] Memory required for data: 39789724
I0928 20:27:59.893767  8808 layer_factory.cpp:58] Creating layer Scale12
I0928 20:27:59.893767  8808 net.cpp:100] Creating Layer Scale12
I0928 20:27:59.893767  8808 net.cpp:434] Scale12 <- Convolution14
I0928 20:27:59.893767  8808 net.cpp:395] Scale12 -> Convolution14 (in-place)
I0928 20:27:59.893767  8808 layer_factory.cpp:58] Creating layer Scale12
I0928 20:27:59.893767  8808 net.cpp:150] Setting up Scale12
I0928 20:27:59.893767  8808 net.cpp:157] Top shape: 1 32 56 56 (100352)
I0928 20:27:59.893767  8808 net.cpp:165] Memory required for data: 40191132
I0928 20:27:59.893767  8808 layer_factory.cpp:58] Creating layer ReLU7
I0928 20:27:59.893767  8808 net.cpp:100] Creating Layer ReLU7
I0928 20:27:59.893767  8808 net.cpp:434] ReLU7 <- Convolution14
I0928 20:27:59.893767  8808 net.cpp:395] ReLU7 -> Convolution14 (in-place)
I0928 20:27:59.893767  8808 net.cpp:150] Setting up ReLU7
I0928 20:27:59.893767  8808 net.cpp:157] Top shape: 1 32 56 56 (100352)
I0928 20:27:59.893767  8808 net.cpp:165] Memory required for data: 40592540
I0928 20:27:59.893767  8808 layer_factory.cpp:58] Creating layer Convolution15
I0928 20:27:59.893767  8808 net.cpp:100] Creating Layer Convolution15
I0928 20:27:59.893767  8808 net.cpp:434] Convolution15 <- Convolution14
I0928 20:27:59.893767  8808 net.cpp:408] Convolution15 -> Convolution15
I0928 20:27:59.893767  8808 net.cpp:150] Setting up Convolution15
I0928 20:27:59.893767  8808 net.cpp:157] Top shape: 1 32 56 56 (100352)
I0928 20:27:59.893767  8808 net.cpp:165] Memory required for data: 40993948
I0928 20:27:59.893767  8808 layer_factory.cpp:58] Creating layer BatchNorm13
I0928 20:27:59.893767  8808 net.cpp:100] Creating Layer BatchNorm13
I0928 20:27:59.893767  8808 net.cpp:434] BatchNorm13 <- Convolution15
I0928 20:27:59.893767  8808 net.cpp:395] BatchNorm13 -> Convolution15 (in-place)
I0928 20:27:59.893767  8808 net.cpp:150] Setting up BatchNorm13
I0928 20:27:59.893767  8808 net.cpp:157] Top shape: 1 32 56 56 (100352)
I0928 20:27:59.893767  8808 net.cpp:165] Memory required for data: 41395356
I0928 20:27:59.893767  8808 layer_factory.cpp:58] Creating layer Scale13
I0928 20:27:59.893767  8808 net.cpp:100] Creating Layer Scale13
I0928 20:27:59.909368  8808 net.cpp:434] Scale13 <- Convolution15
I0928 20:27:59.909368  8808 net.cpp:395] Scale13 -> Convolution15 (in-place)
I0928 20:27:59.909368  8808 layer_factory.cpp:58] Creating layer Scale13
I0928 20:27:59.909368  8808 net.cpp:150] Setting up Scale13
I0928 20:27:59.909368  8808 net.cpp:157] Top shape: 1 32 56 56 (100352)
I0928 20:27:59.909368  8808 net.cpp:165] Memory required for data: 41796764
I0928 20:27:59.909368  8808 layer_factory.cpp:58] Creating layer Eltwise6
I0928 20:27:59.909368  8808 net.cpp:100] Creating Layer Eltwise6
I0928 20:27:59.909368  8808 net.cpp:434] Eltwise6 <- Eltwise5_Eltwise5_0_split_1
I0928 20:27:59.909368  8808 net.cpp:434] Eltwise6 <- Convolution15
I0928 20:27:59.909368  8808 net.cpp:408] Eltwise6 -> Eltwise6
I0928 20:27:59.909368  8808 net.cpp:150] Setting up Eltwise6
I0928 20:27:59.909368  8808 net.cpp:157] Top shape: 1 32 56 56 (100352)
I0928 20:27:59.909368  8808 net.cpp:165] Memory required for data: 42198172
I0928 20:27:59.909368  8808 layer_factory.cpp:58] Creating layer Eltwise6_Eltwise6_0_split
I0928 20:27:59.909368  8808 net.cpp:100] Creating Layer Eltwise6_Eltwise6_0_split
I0928 20:27:59.909368  8808 net.cpp:434] Eltwise6_Eltwise6_0_split <- Eltwise6
I0928 20:27:59.909368  8808 net.cpp:408] Eltwise6_Eltwise6_0_split -> Eltwise6_Eltwise6_0_split_0
I0928 20:27:59.909368  8808 net.cpp:408] Eltwise6_Eltwise6_0_split -> Eltwise6_Eltwise6_0_split_1
I0928 20:27:59.909368  8808 net.cpp:150] Setting up Eltwise6_Eltwise6_0_split
I0928 20:27:59.909368  8808 net.cpp:157] Top shape: 1 32 56 56 (100352)
I0928 20:27:59.909368  8808 net.cpp:157] Top shape: 1 32 56 56 (100352)
I0928 20:27:59.909368  8808 net.cpp:165] Memory required for data: 43000988
I0928 20:27:59.909368  8808 layer_factory.cpp:58] Creating layer Convolution16
I0928 20:27:59.909368  8808 net.cpp:100] Creating Layer Convolution16
I0928 20:27:59.909368  8808 net.cpp:434] Convolution16 <- Eltwise6_Eltwise6_0_split_0
I0928 20:27:59.909368  8808 net.cpp:408] Convolution16 -> Convolution16
I0928 20:27:59.909368  8808 net.cpp:150] Setting up Convolution16
I0928 20:27:59.909368  8808 net.cpp:157] Top shape: 1 64 28 28 (50176)
I0928 20:27:59.909368  8808 net.cpp:165] Memory required for data: 43201692
I0928 20:27:59.909368  8808 layer_factory.cpp:58] Creating layer BatchNorm14
I0928 20:27:59.909368  8808 net.cpp:100] Creating Layer BatchNorm14
I0928 20:27:59.909368  8808 net.cpp:434] BatchNorm14 <- Convolution16
I0928 20:27:59.909368  8808 net.cpp:395] BatchNorm14 -> Convolution16 (in-place)
I0928 20:27:59.909368  8808 net.cpp:150] Setting up BatchNorm14
I0928 20:27:59.909368  8808 net.cpp:157] Top shape: 1 64 28 28 (50176)
I0928 20:27:59.909368  8808 net.cpp:165] Memory required for data: 43402396
I0928 20:27:59.909368  8808 layer_factory.cpp:58] Creating layer Scale14
I0928 20:27:59.909368  8808 net.cpp:100] Creating Layer Scale14
I0928 20:27:59.909368  8808 net.cpp:434] Scale14 <- Convolution16
I0928 20:27:59.909368  8808 net.cpp:395] Scale14 -> Convolution16 (in-place)
I0928 20:27:59.909368  8808 layer_factory.cpp:58] Creating layer Scale14
I0928 20:27:59.909368  8808 net.cpp:150] Setting up Scale14
I0928 20:27:59.909368  8808 net.cpp:157] Top shape: 1 64 28 28 (50176)
I0928 20:27:59.909368  8808 net.cpp:165] Memory required for data: 43603100
I0928 20:27:59.909368  8808 layer_factory.cpp:58] Creating layer ReLU8
I0928 20:27:59.909368  8808 net.cpp:100] Creating Layer ReLU8
I0928 20:27:59.909368  8808 net.cpp:434] ReLU8 <- Convolution16
I0928 20:27:59.909368  8808 net.cpp:395] ReLU8 -> Convolution16 (in-place)
I0928 20:27:59.909368  8808 net.cpp:150] Setting up ReLU8
I0928 20:27:59.909368  8808 net.cpp:157] Top shape: 1 64 28 28 (50176)
I0928 20:27:59.909368  8808 net.cpp:165] Memory required for data: 43803804
I0928 20:27:59.909368  8808 layer_factory.cpp:58] Creating layer Convolution17
I0928 20:27:59.909368  8808 net.cpp:100] Creating Layer Convolution17
I0928 20:27:59.909368  8808 net.cpp:434] Convolution17 <- Convolution16
I0928 20:27:59.909368  8808 net.cpp:408] Convolution17 -> Convolution17
I0928 20:27:59.909368  8808 net.cpp:150] Setting up Convolution17
I0928 20:27:59.909368  8808 net.cpp:157] Top shape: 1 64 28 28 (50176)
I0928 20:27:59.909368  8808 net.cpp:165] Memory required for data: 44004508
I0928 20:27:59.909368  8808 layer_factory.cpp:58] Creating layer BatchNorm15
I0928 20:27:59.909368  8808 net.cpp:100] Creating Layer BatchNorm15
I0928 20:27:59.909368  8808 net.cpp:434] BatchNorm15 <- Convolution17
I0928 20:27:59.909368  8808 net.cpp:395] BatchNorm15 -> Convolution17 (in-place)
I0928 20:27:59.909368  8808 net.cpp:150] Setting up BatchNorm15
I0928 20:27:59.909368  8808 net.cpp:157] Top shape: 1 64 28 28 (50176)
I0928 20:27:59.909368  8808 net.cpp:165] Memory required for data: 44205212
I0928 20:27:59.909368  8808 layer_factory.cpp:58] Creating layer Scale15
I0928 20:27:59.909368  8808 net.cpp:100] Creating Layer Scale15
I0928 20:27:59.909368  8808 net.cpp:434] Scale15 <- Convolution17
I0928 20:27:59.909368  8808 net.cpp:395] Scale15 -> Convolution17 (in-place)
I0928 20:27:59.909368  8808 layer_factory.cpp:58] Creating layer Scale15
I0928 20:27:59.909368  8808 net.cpp:150] Setting up Scale15
I0928 20:27:59.909368  8808 net.cpp:157] Top shape: 1 64 28 28 (50176)
I0928 20:27:59.909368  8808 net.cpp:165] Memory required for data: 44405916
I0928 20:27:59.909368  8808 layer_factory.cpp:58] Creating layer Pooling4
I0928 20:27:59.909368  8808 net.cpp:100] Creating Layer Pooling4
I0928 20:27:59.909368  8808 net.cpp:434] Pooling4 <- Eltwise6_Eltwise6_0_split_1
I0928 20:27:59.909368  8808 net.cpp:408] Pooling4 -> Pooling4
I0928 20:27:59.909368  8808 net.cpp:150] Setting up Pooling4
I0928 20:27:59.909368  8808 net.cpp:157] Top shape: 1 32 28 28 (25088)
I0928 20:27:59.909368  8808 net.cpp:165] Memory required for data: 44506268
I0928 20:27:59.909368  8808 layer_factory.cpp:58] Creating layer PadChannel2
I0928 20:27:59.909368  8808 net.cpp:100] Creating Layer PadChannel2
I0928 20:27:59.909368  8808 net.cpp:434] PadChannel2 <- Pooling4
I0928 20:27:59.909368  8808 net.cpp:408] PadChannel2 -> PadChannel2
I0928 20:27:59.909368  8808 net.cpp:150] Setting up PadChannel2
I0928 20:27:59.909368  8808 net.cpp:157] Top shape: 1 64 28 28 (50176)
I0928 20:27:59.909368  8808 net.cpp:165] Memory required for data: 44706972
I0928 20:27:59.909368  8808 layer_factory.cpp:58] Creating layer Eltwise7
I0928 20:27:59.909368  8808 net.cpp:100] Creating Layer Eltwise7
I0928 20:27:59.909368  8808 net.cpp:434] Eltwise7 <- Convolution17
I0928 20:27:59.909368  8808 net.cpp:434] Eltwise7 <- PadChannel2
I0928 20:27:59.909368  8808 net.cpp:408] Eltwise7 -> Eltwise7
I0928 20:27:59.909368  8808 net.cpp:150] Setting up Eltwise7
I0928 20:27:59.909368  8808 net.cpp:157] Top shape: 1 64 28 28 (50176)
I0928 20:27:59.909368  8808 net.cpp:165] Memory required for data: 44907676
I0928 20:27:59.909368  8808 layer_factory.cpp:58] Creating layer Eltwise7_Eltwise7_0_split
I0928 20:27:59.909368  8808 net.cpp:100] Creating Layer Eltwise7_Eltwise7_0_split
I0928 20:27:59.909368  8808 net.cpp:434] Eltwise7_Eltwise7_0_split <- Eltwise7
I0928 20:27:59.909368  8808 net.cpp:408] Eltwise7_Eltwise7_0_split -> Eltwise7_Eltwise7_0_split_0
I0928 20:27:59.909368  8808 net.cpp:408] Eltwise7_Eltwise7_0_split -> Eltwise7_Eltwise7_0_split_1
I0928 20:27:59.909368  8808 net.cpp:150] Setting up Eltwise7_Eltwise7_0_split
I0928 20:27:59.909368  8808 net.cpp:157] Top shape: 1 64 28 28 (50176)
I0928 20:27:59.909368  8808 net.cpp:157] Top shape: 1 64 28 28 (50176)
I0928 20:27:59.909368  8808 net.cpp:165] Memory required for data: 45309084
I0928 20:27:59.909368  8808 layer_factory.cpp:58] Creating layer Convolution18
I0928 20:27:59.909368  8808 net.cpp:100] Creating Layer Convolution18
I0928 20:27:59.909368  8808 net.cpp:434] Convolution18 <- Eltwise7_Eltwise7_0_split_0
I0928 20:27:59.909368  8808 net.cpp:408] Convolution18 -> Convolution18
I0928 20:27:59.909368  8808 net.cpp:150] Setting up Convolution18
I0928 20:27:59.909368  8808 net.cpp:157] Top shape: 1 64 28 28 (50176)
I0928 20:27:59.909368  8808 net.cpp:165] Memory required for data: 45509788
I0928 20:27:59.909368  8808 layer_factory.cpp:58] Creating layer BatchNorm16
I0928 20:27:59.909368  8808 net.cpp:100] Creating Layer BatchNorm16
I0928 20:27:59.909368  8808 net.cpp:434] BatchNorm16 <- Convolution18
I0928 20:27:59.909368  8808 net.cpp:395] BatchNorm16 -> Convolution18 (in-place)
I0928 20:27:59.909368  8808 net.cpp:150] Setting up BatchNorm16
I0928 20:27:59.909368  8808 net.cpp:157] Top shape: 1 64 28 28 (50176)
I0928 20:27:59.909368  8808 net.cpp:165] Memory required for data: 45710492
I0928 20:27:59.909368  8808 layer_factory.cpp:58] Creating layer Scale16
I0928 20:27:59.909368  8808 net.cpp:100] Creating Layer Scale16
I0928 20:27:59.909368  8808 net.cpp:434] Scale16 <- Convolution18
I0928 20:27:59.909368  8808 net.cpp:395] Scale16 -> Convolution18 (in-place)
I0928 20:27:59.909368  8808 layer_factory.cpp:58] Creating layer Scale16
I0928 20:27:59.909368  8808 net.cpp:150] Setting up Scale16
I0928 20:27:59.909368  8808 net.cpp:157] Top shape: 1 64 28 28 (50176)
I0928 20:27:59.909368  8808 net.cpp:165] Memory required for data: 45911196
I0928 20:27:59.909368  8808 layer_factory.cpp:58] Creating layer ReLU9
I0928 20:27:59.909368  8808 net.cpp:100] Creating Layer ReLU9
I0928 20:27:59.909368  8808 net.cpp:434] ReLU9 <- Convolution18
I0928 20:27:59.909368  8808 net.cpp:395] ReLU9 -> Convolution18 (in-place)
I0928 20:27:59.909368  8808 net.cpp:150] Setting up ReLU9
I0928 20:27:59.909368  8808 net.cpp:157] Top shape: 1 64 28 28 (50176)
I0928 20:27:59.909368  8808 net.cpp:165] Memory required for data: 46111900
I0928 20:27:59.909368  8808 layer_factory.cpp:58] Creating layer Convolution19
I0928 20:27:59.924968  8808 net.cpp:100] Creating Layer Convolution19
I0928 20:27:59.924968  8808 net.cpp:434] Convolution19 <- Convolution18
I0928 20:27:59.924968  8808 net.cpp:408] Convolution19 -> Convolution19
I0928 20:27:59.924968  8808 net.cpp:150] Setting up Convolution19
I0928 20:27:59.924968  8808 net.cpp:157] Top shape: 1 64 28 28 (50176)
I0928 20:27:59.924968  8808 net.cpp:165] Memory required for data: 46312604
I0928 20:27:59.924968  8808 layer_factory.cpp:58] Creating layer BatchNorm17
I0928 20:27:59.924968  8808 net.cpp:100] Creating Layer BatchNorm17
I0928 20:27:59.924968  8808 net.cpp:434] BatchNorm17 <- Convolution19
I0928 20:27:59.924968  8808 net.cpp:395] BatchNorm17 -> Convolution19 (in-place)
I0928 20:27:59.924968  8808 net.cpp:150] Setting up BatchNorm17
I0928 20:27:59.924968  8808 net.cpp:157] Top shape: 1 64 28 28 (50176)
I0928 20:27:59.924968  8808 net.cpp:165] Memory required for data: 46513308
I0928 20:27:59.924968  8808 layer_factory.cpp:58] Creating layer Scale17
I0928 20:27:59.924968  8808 net.cpp:100] Creating Layer Scale17
I0928 20:27:59.924968  8808 net.cpp:434] Scale17 <- Convolution19
I0928 20:27:59.924968  8808 net.cpp:395] Scale17 -> Convolution19 (in-place)
I0928 20:27:59.924968  8808 layer_factory.cpp:58] Creating layer Scale17
I0928 20:27:59.924968  8808 net.cpp:150] Setting up Scale17
I0928 20:27:59.924968  8808 net.cpp:157] Top shape: 1 64 28 28 (50176)
I0928 20:27:59.924968  8808 net.cpp:165] Memory required for data: 46714012
I0928 20:27:59.924968  8808 layer_factory.cpp:58] Creating layer Eltwise8
I0928 20:27:59.924968  8808 net.cpp:100] Creating Layer Eltwise8
I0928 20:27:59.924968  8808 net.cpp:434] Eltwise8 <- Eltwise7_Eltwise7_0_split_1
I0928 20:27:59.924968  8808 net.cpp:434] Eltwise8 <- Convolution19
I0928 20:27:59.924968  8808 net.cpp:408] Eltwise8 -> Eltwise8
I0928 20:27:59.924968  8808 net.cpp:150] Setting up Eltwise8
I0928 20:27:59.924968  8808 net.cpp:157] Top shape: 1 64 28 28 (50176)
I0928 20:27:59.924968  8808 net.cpp:165] Memory required for data: 46914716
I0928 20:27:59.924968  8808 layer_factory.cpp:58] Creating layer Eltwise8_Eltwise8_0_split
I0928 20:27:59.924968  8808 net.cpp:100] Creating Layer Eltwise8_Eltwise8_0_split
I0928 20:27:59.924968  8808 net.cpp:434] Eltwise8_Eltwise8_0_split <- Eltwise8
I0928 20:27:59.924968  8808 net.cpp:408] Eltwise8_Eltwise8_0_split -> Eltwise8_Eltwise8_0_split_0
I0928 20:27:59.924968  8808 net.cpp:408] Eltwise8_Eltwise8_0_split -> Eltwise8_Eltwise8_0_split_1
I0928 20:27:59.924968  8808 net.cpp:150] Setting up Eltwise8_Eltwise8_0_split
I0928 20:27:59.924968  8808 net.cpp:157] Top shape: 1 64 28 28 (50176)
I0928 20:27:59.924968  8808 net.cpp:157] Top shape: 1 64 28 28 (50176)
I0928 20:27:59.924968  8808 net.cpp:165] Memory required for data: 47316124
I0928 20:27:59.924968  8808 layer_factory.cpp:58] Creating layer Convolution20
I0928 20:27:59.924968  8808 net.cpp:100] Creating Layer Convolution20
I0928 20:27:59.924968  8808 net.cpp:434] Convolution20 <- Eltwise8_Eltwise8_0_split_0
I0928 20:27:59.924968  8808 net.cpp:408] Convolution20 -> Convolution20
I0928 20:27:59.924968  8808 net.cpp:150] Setting up Convolution20
I0928 20:27:59.924968  8808 net.cpp:157] Top shape: 1 64 28 28 (50176)
I0928 20:27:59.924968  8808 net.cpp:165] Memory required for data: 47516828
I0928 20:27:59.924968  8808 layer_factory.cpp:58] Creating layer BatchNorm18
I0928 20:27:59.924968  8808 net.cpp:100] Creating Layer BatchNorm18
I0928 20:27:59.924968  8808 net.cpp:434] BatchNorm18 <- Convolution20
I0928 20:27:59.924968  8808 net.cpp:395] BatchNorm18 -> Convolution20 (in-place)
I0928 20:27:59.924968  8808 net.cpp:150] Setting up BatchNorm18
I0928 20:27:59.924968  8808 net.cpp:157] Top shape: 1 64 28 28 (50176)
I0928 20:27:59.924968  8808 net.cpp:165] Memory required for data: 47717532
I0928 20:27:59.924968  8808 layer_factory.cpp:58] Creating layer Scale18
I0928 20:27:59.924968  8808 net.cpp:100] Creating Layer Scale18
I0928 20:27:59.924968  8808 net.cpp:434] Scale18 <- Convolution20
I0928 20:27:59.924968  8808 net.cpp:395] Scale18 -> Convolution20 (in-place)
I0928 20:27:59.924968  8808 layer_factory.cpp:58] Creating layer Scale18
I0928 20:27:59.924968  8808 net.cpp:150] Setting up Scale18
I0928 20:27:59.924968  8808 net.cpp:157] Top shape: 1 64 28 28 (50176)
I0928 20:27:59.924968  8808 net.cpp:165] Memory required for data: 47918236
I0928 20:27:59.924968  8808 layer_factory.cpp:58] Creating layer ReLU10
I0928 20:27:59.924968  8808 net.cpp:100] Creating Layer ReLU10
I0928 20:27:59.924968  8808 net.cpp:434] ReLU10 <- Convolution20
I0928 20:27:59.924968  8808 net.cpp:395] ReLU10 -> Convolution20 (in-place)
I0928 20:27:59.924968  8808 net.cpp:150] Setting up ReLU10
I0928 20:27:59.924968  8808 net.cpp:157] Top shape: 1 64 28 28 (50176)
I0928 20:27:59.924968  8808 net.cpp:165] Memory required for data: 48118940
I0928 20:27:59.924968  8808 layer_factory.cpp:58] Creating layer Convolution21
I0928 20:27:59.924968  8808 net.cpp:100] Creating Layer Convolution21
I0928 20:27:59.924968  8808 net.cpp:434] Convolution21 <- Convolution20
I0928 20:27:59.924968  8808 net.cpp:408] Convolution21 -> Convolution21
I0928 20:27:59.924968  8808 net.cpp:150] Setting up Convolution21
I0928 20:27:59.924968  8808 net.cpp:157] Top shape: 1 64 28 28 (50176)
I0928 20:27:59.924968  8808 net.cpp:165] Memory required for data: 48319644
I0928 20:27:59.924968  8808 layer_factory.cpp:58] Creating layer BatchNorm19
I0928 20:27:59.924968  8808 net.cpp:100] Creating Layer BatchNorm19
I0928 20:27:59.924968  8808 net.cpp:434] BatchNorm19 <- Convolution21
I0928 20:27:59.924968  8808 net.cpp:395] BatchNorm19 -> Convolution21 (in-place)
I0928 20:27:59.924968  8808 net.cpp:150] Setting up BatchNorm19
I0928 20:27:59.924968  8808 net.cpp:157] Top shape: 1 64 28 28 (50176)
I0928 20:27:59.924968  8808 net.cpp:165] Memory required for data: 48520348
I0928 20:27:59.924968  8808 layer_factory.cpp:58] Creating layer Scale19
I0928 20:27:59.924968  8808 net.cpp:100] Creating Layer Scale19
I0928 20:27:59.924968  8808 net.cpp:434] Scale19 <- Convolution21
I0928 20:27:59.924968  8808 net.cpp:395] Scale19 -> Convolution21 (in-place)
I0928 20:27:59.924968  8808 layer_factory.cpp:58] Creating layer Scale19
I0928 20:27:59.924968  8808 net.cpp:150] Setting up Scale19
I0928 20:27:59.924968  8808 net.cpp:157] Top shape: 1 64 28 28 (50176)
I0928 20:27:59.924968  8808 net.cpp:165] Memory required for data: 48721052
I0928 20:27:59.924968  8808 layer_factory.cpp:58] Creating layer Eltwise9
I0928 20:27:59.924968  8808 net.cpp:100] Creating Layer Eltwise9
I0928 20:27:59.924968  8808 net.cpp:434] Eltwise9 <- Eltwise8_Eltwise8_0_split_1
I0928 20:27:59.924968  8808 net.cpp:434] Eltwise9 <- Convolution21
I0928 20:27:59.924968  8808 net.cpp:408] Eltwise9 -> Eltwise9
I0928 20:27:59.924968  8808 net.cpp:150] Setting up Eltwise9
I0928 20:27:59.924968  8808 net.cpp:157] Top shape: 1 64 28 28 (50176)
I0928 20:27:59.924968  8808 net.cpp:165] Memory required for data: 48921756
I0928 20:27:59.924968  8808 layer_factory.cpp:58] Creating layer Pooling5
I0928 20:27:59.924968  8808 net.cpp:100] Creating Layer Pooling5
I0928 20:27:59.924968  8808 net.cpp:434] Pooling5 <- Eltwise9
I0928 20:27:59.924968  8808 net.cpp:408] Pooling5 -> Pooling5
I0928 20:27:59.924968  8808 net.cpp:150] Setting up Pooling5
I0928 20:27:59.924968  8808 net.cpp:157] Top shape: 1 64 1 1 (64)
I0928 20:27:59.924968  8808 net.cpp:165] Memory required for data: 48922012
I0928 20:27:59.924968  8808 layer_factory.cpp:58] Creating layer InnerProduct4
I0928 20:27:59.924968  8808 net.cpp:100] Creating Layer InnerProduct4
I0928 20:27:59.924968  8808 net.cpp:434] InnerProduct4 <- Pooling5
I0928 20:27:59.924968  8808 net.cpp:408] InnerProduct4 -> InnerProduct4
I0928 20:27:59.924968  8808 net.cpp:150] Setting up InnerProduct4
I0928 20:27:59.924968  8808 net.cpp:157] Top shape: 1 2 (2)
I0928 20:27:59.924968  8808 net.cpp:165] Memory required for data: 48922020
I0928 20:27:59.924968  8808 layer_factory.cpp:58] Creating layer SoftmaxWithLoss1
I0928 20:27:59.924968  8808 net.cpp:100] Creating Layer SoftmaxWithLoss1
I0928 20:27:59.924968  8808 net.cpp:434] SoftmaxWithLoss1 <- InnerProduct4
I0928 20:27:59.924968  8808 net.cpp:434] SoftmaxWithLoss1 <- ImageData2
I0928 20:27:59.924968  8808 net.cpp:408] SoftmaxWithLoss1 -> SoftmaxWithLoss1
…
I0928 20:27:59.940567  8808 net.cpp:322] The NetState phase (1) differed from the phase (0) specified by a rule in layer ImageData1
I0928 20:27:59.940567  8808 net.cpp:58] Initializing net from parameters: 
name: "resnet_cifar10"
state {
  phase: TEST
}
layer {
  name: "ImageData1"
  type: "ImageData"
  top: "ImageData1"
  top: "ImageData2"
  include {
    phase: TEST
  }
  transform_param {
    scale: 0.0039215689
    mirror: true
    crop_size: 112
    mean_value: 128
  }
  image_data_param {
    source: "image_list.txt"
    batch_size: 1
    shuffle: true
    new_height: 0
    new_width: 0
    is_color: false
    root_folder: ""
  }
}
layer {
  name: "Convolution1"
  type: "Convolution"
  bottom: "ImageData1"
  top: "Convolution1"
  param {
    lr_mult: 0.1
    decay_mult: 1
  }
  param {
    lr_mult: 0.2
    decay_mult: 0
  }
  convolution_param {
    num_output: 16
    pad: 2
    kernel_size: 5
    stride: 1
    weight_filler {
      type: "gaussian"
      std: 0.01
    }
    bias_filler {
      type: "constant"
      value: 0
    }
  }
}
layer {
  name: "Pooling1"
  type: "Pooling"
  bottom: "Convolution1"
  top: "Pooling1"
  pooling_param {
    pool: MAX
    kernel_size: 2
    stride: 2
  }
}
layer {
  name: "Convolution2"
  type: "Convolution"
  bottom: "Pooling1"
  top: "Convolution2"
  param {
    lr_mult: 0.1
    decay_mult: 1
  }
  param {
    lr_mult: 0.2
    decay_mult: 0
  }
  convolution_param {
    num_output: 16
    pad: 2
    kernel_size: 5
    stride: 1
    weight_filler {
      type: "gaussian"
      std: 0.01
    }
    bias_filler {
      type: "constant"
      value: 0
    }
  }
}
layer {
  name: "Pooling2"
  type: "Pooling"
  bottom: "Convolution2"
  top: "Pooling2"
  pooling_param {
    pool: MAX
    kernel_size: 2
    stride: 2
  }
}
layer {
  name: "InnerProduct1"
  type: "InnerProduct"
  bottom: "Pooling2"
  top: "InnerProduct1"
  param {
    lr_mult: 0.1
    decay_mult: 1
  }
  param {
    lr_mult: 0.2
    decay_mult: 0
  }
  inner_product_param {
    num_output: 16
    weight_filler {
      type: "gaussian"
      std: 0.01
    }
    bias_filler {
      type: "constant"
      value: 0
    }
  }
}
layer {
  name: "InnerProduct2"
  type: "InnerProduct"
  bottom: "InnerProduct1"
  top: "InnerProduct2"
  param {
    lr_mult: 0.1
    decay_mult: 1
  }
  param {
    lr_mult: 0.2
    decay_mult: 0
  }
  inner_product_param {
    num_output: 16
    weight_filler {
      type: "gaussian"
      std: 0.01
    }
    bias_filler {
      type: "constant"
      value: 0
    }
  }
}
layer {
  name: "InnerProduct3"
  type: "InnerProduct"
  bottom: "InnerProduct2"
  top: "InnerProduct3"
  param {
    lr_mult: 0.1
    decay_mult: 1
  }
  param {
    lr_mult: 0.2
    decay_mult: 0
  }
  inner_product_param {
    num_output: 6
    weight_filler {
      type: "constant"
      value: 0
    }
    bias_filler {
      type: "constant"
      value: 0
    }
  }
}
layer {
  name: "Transformer1"
  type: "Transformer"
  bottom: "ImageData1"
  bottom: "InnerProduct3"
  top: "Transformer1"
  transformer_param {
    num_theta: 6
  }
}
layer {
  name: "Convolution3"
  type: "Convolution"
  bottom: "Transformer1"
  top: "Convolution3"
  param {
    lr_mult: 1
    decay_mult: 1
  }
  param {
    lr_mult: 2
    decay_mult: 0
  }
  convolution_param {
    num_output: 16
    pad: 1
    kernel_size: 3
    stride: 1
    weight_filler {
      type: "gaussian"
      std: 0.01
    }
    bias_filler {
      type: "constant"
      value: 0
    }
  }
}
layer {
  name: "BatchNorm1"
  type: "BatchNorm"
  bottom: "Convolution3"
  top: "Convolution3"
}
layer {
  name: "Scale1"
  type: "Scale"
  bottom: "Convolution3"
  top: "Convolution3"
  scale_param {
    bias_term: true
  }
}
layer {
  name: "ReLU1"
  type: "ReLU"
  bottom: "Convolution3"
  top: "Convolution3"
}
layer {
  name: "Convolution4"
  type: "Convolution"
  bottom: "Convolution3"
  top: "Convolution4"
  param {
    lr_mult: 1
    decay_mult: 1
  }
  param {
    lr_mult: 2
    decay_mult: 0
  }
  convolution_param {
    num_output: 16
    pad: 1
    kernel_size: 3
    stride: 1
    weight_filler {
      type: "gaussian"
      std: 0.01
    }
    bias_filler {
      type: "constant"
      value: 0
    }
  }
}
layer {
  name: "BatchNorm2"
  type: "BatchNorm"
  bottom: "Convolution4"
  top: "Convolution4"
}
layer {
  name: "Scale2"
  type: "Scale"
  bottom: "Convolution4"
  top: "Convolution4"
  scale_param {
    bias_term: true
  }
}
layer {
  name: "ReLU2"
  type: "ReLU"
  bottom: "Convolution4"
  top: "Convolution4"
}
layer {
  name: "Convolution5"
  type: "Convolution"
  bottom: "Convolution4"
  top: "Convolution5"
  param {
    lr_mult: 1
    decay_mult: 1
  }
  param {
    lr_mult: 2
    decay_mult: 0
  }
  convolution_param {
    num_output: 16
    pad: 1
    kernel_size: 3
    stride: 1
    weight_filler {
      type: "gaussian"
      std: 0.01
    }
    bias_filler {
      type: "constant"
      value: 0
    }
  }
}
layer {
  name: "BatchNorm3"
  type: "BatchNorm"
  bottom: "Convolution5"
  top: "Convolution5"
}
layer {
  name: "Scale3"
  type: "Scale"
  bottom: "Convolution5"
  top: "Convolution5"
  scale_param {
    bias_term: true
  }
}
layer {
  name: "Eltwise1"
  type: "Eltwise"
  bottom: "Convolution3"
  bottom: "Convolution5"
  top: "Eltwise1"
  eltwise_param {
    operation: SUM
  }
}
layer {
  name: "Convolution6"
  type: "Convolution"
  bottom: "Eltwise1"
  top: "Convolution6"
  param {
    lr_mult: 1
    decay_mult: 1
  }
  param {
    lr_mult: 2
    decay_mult: 0
  }
  convolution_param {
    num_output: 16
    pad: 1
    kernel_size: 3
    stride: 1
    weight_filler {
      type: "gaussian"
      std: 0.01
    }
    bias_filler {
      type: "constant"
      value: 0
    }
  }
}
layer {
  name: "BatchNorm4"
  type: "BatchNorm"
  bottom: "Convolution6"
  top: "Convolution6"
}
layer {
  name: "Scale4"
  type: "Scale"
  bottom: "Convolution6"
  top: "Convolution6"
  scale_param {
    bias_term: true
  }
}
layer {
  name: "ReLU3"
  type: "ReLU"
  bottom: "Convolution6"
  top: "Convolution6"
}
layer {
  name: "Convolution7"
  type: "Convolution"
  bottom: "Convolution6"
  top: "Convolution7"
  param {
    lr_mult: 1
    decay_mult: 1
  }
  param {
    lr_mult: 2
    decay_mult: 0
  }
  convolution_param {
    num_output: 16
    pad: 1
    kernel_size: 3
    stride: 1
    weight_filler {
      type: "gaussian"
      std: 0.01
    }
    bias_filler {
      type: "constant"
      value: 0
    }
  }
}
layer {
  name: "BatchNorm5"
  type: "BatchNorm"
  bottom: "Convolution7"
  top: "Convolution7"
}
layer {
  name: "Scale5"
  type: "Scale"
  bottom: "Convolution7"
  top: "Convolution7"
  scale_param {
    bias_term: true
  }
}
layer {
  name: "Eltwise2"
  type: "Eltwise"
  bottom: "Eltwise1"
  bottom: "Convolution7"
  top: "Eltwise2"
  eltwise_param {
    operation: SUM
  }
}
layer {
  name: "Convolution8"
  type: "Convolution"
  bottom: "Eltwise2"
  top: "Convolution8"
  param {
    lr_mult: 1
    decay_mult: 1
  }
  param {
    lr_mult: 2
    decay_mult: 0
  }
  convolution_param {
    num_output: 16
    pad: 1
    kernel_size: 3
    stride: 1
    weight_filler {
      type: "gaussian"
      std: 0.01
    }
    bias_filler {
      type: "constant"
      value: 0
    }
  }
}
layer {
  name: "BatchNorm6"
  type: "BatchNorm"
  bottom: "Convolution8"
  top: "Convolution8"
}
layer {
  name: "Scale6"
  type: "Scale"
  bottom: "Convolution8"
  top: "Convolution8"
  scale_param {
    bias_term: true
  }
}
layer {
  name: "ReLU4"
  type: "ReLU"
  bottom: "Convolution8"
  top: "Convolution8"
}
layer {
  name: "Convolution9"
  type: "Convolution"
  bottom: "Convolution8"
  top: "Convolution9"
  param {
    lr_mult: 1
    decay_mult: 1
  }
  param {
    lr_mult: 2
    decay_mult: 0
  }
  convolution_param {
    num_output: 16
    pad: 1
    kernel_size: 3
    stride: 1
    weight_filler {
      type: "gaussian"
      std: 0.01
    }
    bias_filler {
      type: "constant"
      value: 0
    }
  }
}
layer {
  name: "BatchNorm7"
  type: "BatchNorm"
  bottom: "Convolution9"
  top: "Convolution9"
}
layer {
  name: "Scale7"
  type: "Scale"
  bottom: "Convolution9"
  top: "Convolution9"
  scale_param {
    bias_term: true
  }
}
layer {
  name: "Eltwise3"
  type: "Eltwise"
  bottom: "Eltwise2"
  bottom: "Convolution9"
  top: "Eltwise3"
  eltwise_param {
    operation: SUM
  }
}
layer {
  name: "Convolution10"
  type: "Convolution"
  bottom: "Eltwise3"
  top: "Convolution10"
  param {
    lr_mult: 1
    decay_mult: 1
  }
  param {
    lr_mult: 2
    decay_mult: 0
  }
  convolution_param {
    num_output: 32
    pad: 1
    kernel_size: 3
    stride: 2
    weight_filler {
      type: "gaussian"
      std: 0.01
    }
    bias_filler {
      type: "constant"
      value: 0
    }
  }
}
layer {
  name: "BatchNorm8"
  type: "BatchNorm"
  bottom: "Convolution10"
  top: "Convolution10"
}
layer {
  name: "Scale8"
  type: "Scale"
  bottom: "Convolution10"
  top: "Convolution10"
  scale_param {
    bias_term: true
  }
}
layer {
  name: "ReLU5"
  type: "ReLU"
  bottom: "Convolution10"
  top: "Convolution10"
}
layer {
  name: "Convolution11"
  type: "Convolution"
  bottom: "Convolution10"
  top: "Convolution11"
  param {
    lr_mult: 1
    decay_mult: 1
  }
  param {
    lr_mult: 2
    decay_mult: 0
  }
  convolution_param {
    num_output: 32
    pad: 1
    kernel_size: 3
    stride: 1
    weight_filler {
      type: "gaussian"
      std: 0.01
    }
    bias_filler {
      type: "constant"
      value: 0
    }
  }
}
layer {
  name: "BatchNorm9"
  type: "BatchNorm"
  bottom: "Convolution11"
  top: "Convolution11"
}
layer {
  name: "Scale9"
  type: "Scale"
  bottom: "Convolution11"
  top: "Convolution11"
  scale_param {
    bias_term: true
  }
}
layer {
  name: "Pooling3"
  type: "Pooling"
  bottom: "Eltwise3"
  top: "Pooling3"
  pooling_param {
    pool: AVE
    kernel_size: 2
    stride: 2
  }
}
layer {
  name: "PadChannel1"
  type: "PadChannel"
  bottom: "Pooling3"
  top: "PadChannel1"
  pad_channel_param {
    num_channels_to_pad: 16
  }
}
layer {
  name: "Eltwise4"
  type: "Eltwise"
  bottom: "Convolution11"
  bottom: "PadChannel1"
  top: "Eltwise4"
  eltwise_param {
    operation: SUM
  }
}
layer {
  name: "Convolution12"
  type: "Convolution"
  bottom: "Eltwise4"
  top: "Convolution12"
  param {
    lr_mult: 1
    decay_mult: 1
  }
  param {
    lr_mult: 2
    decay_mult: 0
  }
  convolution_param {
    num_output: 32
    pad: 1
    kernel_size: 3
    stride: 1
    weight_filler {
      type: "gaussian"
      std: 0.01
    }
    bias_filler {
      type: "constant"
      value: 0
    }
  }
}
layer {
  name: "BatchNorm10"
  type: "BatchNorm"
  bottom: "Convolution12"
  top: "Convolution12"
}
layer {
  name: "Scale10"
  type: "Scale"
  bottom: "Convolution12"
  top: "Convolution12"
  scale_param {
    bias_term: true
  }
}
layer {
  name: "ReLU6"
  type: "ReLU"
  bottom: "Convolution12"
  top: "Convolution12"
}
layer {
  name: "Convolution13"
  type: "Convolution"
  bottom: "Convolution12"
  top: "Convolution13"
  param {
    lr_mult: 1
    decay_mult: 1
  }
  param {
    lr_mult: 2
    decay_mult: 0
  }
  convolution_param {
    num_output: 32
    pad: 1
    kernel_size: 3
    stride: 1
    weight_filler {
      type: "gaussian"
      std: 0.01
    }
    bias_filler {
      type: "constant"
      value: 0
    }
  }
}
layer {
  name: "BatchNorm11"
  type: "BatchNorm"
  bottom: "Convolution13"
  top: "Convolution13"
}
layer {
  name: "Scale11"
  type: "Scale"
  bottom: "Convolution13"
  top: "Convolution13"
  scale_param {
    bias_term: true
  }
}
layer {
  name: "Eltwise5"
  type: "Eltwise"
  bottom: "Eltwise4"
  bottom: "Convolution13"
  top: "Eltwise5"
  eltwise_param {
    operation: SUM
  }
}
layer {
  name: "Convolution14"
  type: "Convolution"
  bottom: "Eltwise5"
  top: "Convolution14"
  param {
    lr_mult: 1
    decay_mult: 1
  }
  param {
    lr_mult: 2
    decay_mult: 0
  }
  convolution_param {
    num_output: 32
    pad: 1
    kernel_size: 3
    stride: 1
    weight_filler {
      type: "gaussian"
      std: 0.01
    }
    bias_filler {
      type: "constant"
      value: 0
    }
  }
}
layer {
  name: "BatchNorm12"
  type: "BatchNorm"
  bottom: "Convolution14"
  top: "Convolution14"
}
layer {
  name: "Scale12"
  type: "Scale"
  bottom: "Convolution14"
  top: "Convolution14"
  scale_param {
    bias_term: true
  }
}
layer {
  name: "ReLU7"
  type: "ReLU"
  bottom: "Convolution14"
  top: "Convolution14"
}
layer {
  name: "Convolution15"
  type: "Convolution"
  bottom: "Convolution14"
  top: "Convolution15"
  param {
    lr_mult: 1
    decay_mult: 1
  }
  param {
    lr_mult: 2
    decay_mult: 0
  }
  convolution_param {
    num_output: 32
    pad: 1
    kernel_size: 3
    stride: 1
    weight_filler {
      type: "gaussian"
      std: 0.01
    }
    bias_filler {
      type: "constant"
      value: 0
    }
  }
}
layer {
  name: "BatchNorm13"
  type: "BatchNorm"
  bottom: "Convolution15"
  top: "Convolution15"
}
layer {
  name: "Scale13"
  type: "Scale"
  bottom: "Convolution15"
  top: "Convolution15"
  scale_param {
    bias_term: true
  }
}
layer {
  name: "Eltwise6"
  type: "Eltwise"
  bottom: "Eltwise5"
  bottom: "Convolution15"
  top: "Eltwise6"
  eltwise_param {
    operation: SUM
  }
}
layer {
  name: "Convolution16"
  type: "Convolution"
  bottom: "Eltwise6"
  top: "Convolution16"
  param {
    lr_mult: 1
    decay_mult: 1
  }
  param {
    lr_mult: 2
    decay_mult: 0
  }
  convolution_param {
    num_output: 64
    pad: 1
    kernel_size: 3
    stride: 2
    weight_filler {
      type: "gaussian"
      std: 0.01
    }
    bias_filler {
      type: "constant"
      value: 0
    }
  }
}
layer {
  name: "BatchNorm14"
  type: "BatchNorm"
  bottom: "Convolution16"
  top: "Convolution16"
}
layer {
  name: "Scale14"
  type: "Scale"
  bottom: "Convolution16"
  top: "Convolution16"
  scale_param {
    bias_term: true
  }
}
layer {
  name: "ReLU8"
  type: "ReLU"
  bottom: "Convolution16"
  top: "Convolution16"
}
layer {
  name: "Convolution17"
  type: "Convolution"
  bottom: "Convolution16"
  top: "Convolution17"
  param {
    lr_mult: 1
    decay_mult: 1
  }
  param {
    lr_mult: 2
    decay_mult: 0
  }
  convolution_param {
    num_output: 64
    pad: 1
    kernel_size: 3
    stride: 1
    weight_filler {
      type: "gaussian"
      std: 0.01
    }
    bias_filler {
      type: "constant"
      value: 0
    }
  }
}
layer {
  name: "BatchNorm15"
  type: "BatchNorm"
  bottom: "Convolution17"
  top: "Convolution17"
}
layer {
  name: "Scale15"
  type: "Scale"
  bottom: "Convolution17"
  top: "Convolution17"
  scale_param {
    bias_term: true
  }
}
layer {
  name: "Pooling4"
  type: "Pooling"
  bottom: "Eltwise6"
  top: "Pooling4"
  pooling_param {
    pool: AVE
    kernel_size: 2
    stride: 2
  }
}
layer {
  name: "PadChannel2"
  type: "PadChannel"
  bottom: "Pooling4"
  top: "PadChannel2"
  pad_channel_param {
    num_channels_to_pad: 32
  }
}
layer {
  name: "Eltwise7"
  type: "Eltwise"
  bottom: "Convolution17"
  bottom: "PadChannel2"
  top: "Eltwise7"
  eltwise_param {
    operation: SUM
  }
}
layer {
  name: "Convolution18"
  type: "Convolution"
  bottom: "Eltwise7"
  top: "Convolution18"
  param {
    lr_mult: 1
    decay_mult: 1
  }
  param {
    lr_mult: 2
    decay_mult: 0
  }
  convolution_param {
    num_output: 64
    pad: 1
    kernel_size: 3
    stride: 1
    weight_filler {
      type: "gaussian"
      std: 0.01
    }
    bias_filler {
      type: "constant"
      value: 0
    }
  }
}
layer {
  name: "BatchNorm16"
  type: "BatchNorm"
  bottom: "Convolution18"
  top: "Convolution18"
}
layer {
  name: "Scale16"
  type: "Scale"
  bottom: "Convolution18"
  top: "Convolution18"
  scale_param {
    bias_term: true
  }
}
layer {
  name: "ReLU9"
  type: "ReLU"
  bottom: "Convolution18"
  top: "Convolution18"
}
layer {
  name: "Convolution19"
  type: "Convolution"
  bottom: "Convolution18"
  top: "Convolution19"
  param {
    lr_mult: 1
    decay_mult: 1
  }
  param {
    lr_mult: 2
    decay_mult: 0
  }
  convolution_param {
    num_output: 64
    pad: 1
    kernel_size: 3
    stride: 1
    weight_filler {
      type: "gaussian"
      std: 0.01
    }
    bias_filler {
      type: "constant"
      value: 0
    }
  }
}
layer {
  name: "BatchNorm17"
  type: "BatchNorm"
  bottom: "Convolution19"
  top: "Convolution19"
}
layer {
  name: "Scale17"
  type: "Scale"
  bottom: "Convolution19"
  top: "Convolution19"
  scale_param {
    bias_term: true
  }
}
layer {
  name: "Eltwise8"
  type: "Eltwise"
  bottom: "Eltwise7"
  bottom: "Convolution19"
  top: "Eltwise8"
  eltwise_param {
    operation: SUM
  }
}
layer {
  name: "Convolution20"
  type: "Convolution"
  bottom: "Eltwise8"
  top: "Convolution20"
  param {
    lr_mult: 1
    decay_mult: 1
  }
  param {
    lr_mult: 2
    decay_mult: 0
  }
  convolution_param {
    num_output: 64
    pad: 1
    kernel_size: 3
    stride: 1
    weight_filler {
      type: "gaussian"
      std: 0.01
    }
    bias_filler {
      type: "constant"
      value: 0
    }
  }
}
layer {
  name: "BatchNorm18"
  type: "BatchNorm"
  bottom: "Convolution20"
  top: "Convolution20"
}
layer {
  name: "Scale18"
  type: "Scale"
  bottom: "Convolution20"
  top: "Convolution20"
  scale_param {
    bias_term: true
  }
}
layer {
  name: "ReLU10"
  type: "ReLU"
  bottom: "Convolution20"
  top: "Convolution20"
}
layer {
  name: "Convolution21"
  type: "Convolution"
  bottom: "Convolution20"
  top: "Convolution21"
  param {
    lr_mult: 1
    decay_mult: 1
  }
  param {
    lr_mult: 2
    decay_mult: 0
  }
  convolution_param {
    num_output: 64
    pad: 1
    kernel_size: 3
    stride: 1
    weight_filler {
      type: "gaussian"
      std: 0.01
    }
    bias_filler {
      type: "constant"
      value: 0
    }
  }
}
layer {
  name: "BatchNorm19"
  type: "BatchNorm"
  bottom: "Convolution21"
  top: "Convolution21"
}
layer {
  name: "Scale19"
  type: "Scale"
  bottom: "Convolution21"
  top: "Convolution21"
  scale_param {
    bias_term: true
  }
}
layer {
  name: "Eltwise9"
  type: "Eltwise"
  bottom: "Eltwise8"
  bottom: "Convolution21"
  top: "Eltwise9"
  eltwise_param {
    operation: SUM
  }
}
layer {
  name: "Pooling5"
  type: "Pooling"
  bottom: "Eltwise9"
  top: "Pooling5"
  pooling_param {
    pool: AVE
    global_pooling: true
  }
}
layer {
  name: "InnerProduct4"
  type: "InnerProduct"
  bottom: "Pooling5"
  top: "InnerProduct4"
  param {
    lr_mult: 1
    decay_mult: 1
  }
  param {
    lr_mult: 2
    decay_mult: 1
  }
  inner_product_param {
    num_output: 2
    weight_filler {
      type: "gaussian"
      std: 0.01
    }
    bias_filler {
      type: "constant"
      value: 0
    }
  }
}
layer {
  name: "SoftmaxWithLoss1"
  type: "SoftmaxWithLoss"
  bottom: "InnerProduct4"
  bottom: "ImageData2"
  top: "SoftmaxWithLoss1"
}
layer {
  name: "Accuracy1"
  type: "Accuracy"
  bottom: "InnerProduct4"
  bottom: "ImageData2"
  top: "Accuracy1"
  include {
    phase: TEST
  }
}
I0928 20:28:00.002967  8808 layer_factory.cpp:58] Creating layer ImageData1
I0928 20:28:00.002967  8808 net.cpp:100] Creating Layer ImageData1
I0928 20:28:00.002967  8808 net.cpp:408] ImageData1 -> ImageData1
I0928 20:28:00.002967  8808 net.cpp:408] ImageData1 -> ImageData2
I0928 20:28:00.002967  8808 image_data_layer.cpp:38] Opening file image_list.txt
I0928 20:28:00.002967  8808 image_data_layer.cpp:53] Shuffling data
I0928 20:28:00.002967  8808 image_data_layer.cpp:58] A total of 1 images.
I0928 20:28:00.002967  8808 image_data_layer.cpp:85] output data size: 1,1,112,112
I0928 20:28:00.002967  8808 net.cpp:150] Setting up ImageData1
I0928 20:28:00.002967  8808 net.cpp:157] Top shape: 1 1 112 112 (12544)
I0928 20:28:00.002967  8808 net.cpp:157] Top shape: 1 (1)
I0928 20:28:00.002967  8808 net.cpp:165] Memory required for data: 50180
I0928 20:28:00.002967  8808 layer_factory.cpp:58] Creating layer ImageData1_ImageData1_0_split
I0928 20:28:00.002967  8808 net.cpp:100] Creating Layer ImageData1_ImageData1_0_split
I0928 20:28:00.002967  8808 net.cpp:434] ImageData1_ImageData1_0_split <- ImageData1
I0928 20:28:00.002967  8808 net.cpp:408] ImageData1_ImageData1_0_split -> ImageData1_ImageData1_0_split_0
I0928 20:28:00.002967  8808 net.cpp:408] ImageData1_ImageData1_0_split -> ImageData1_ImageData1_0_split_1
I0928 20:28:00.002967  8808 net.cpp:150] Setting up ImageData1_ImageData1_0_split
I0928 20:28:00.002967  8808 net.cpp:157] Top shape: 1 1 112 112 (12544)
I0928 20:28:00.002967  8808 net.cpp:157] Top shape: 1 1 112 112 (12544)
I0928 20:28:00.002967  8808 net.cpp:165] Memory required for data: 150532
I0928 20:28:00.002967  8808 layer_factory.cpp:58] Creating layer ImageData2_ImageData1_1_split
I0928 20:28:00.002967  8808 net.cpp:100] Creating Layer ImageData2_ImageData1_1_split
I0928 20:28:00.002967  8808 net.cpp:434] ImageData2_ImageData1_1_split <- ImageData2
I0928 20:28:00.002967  8808 net.cpp:408] ImageData2_ImageData1_1_split -> ImageData2_ImageData1_1_split_0
I0928 20:28:00.002967  8808 net.cpp:408] ImageData2_ImageData1_1_split -> ImageData2_ImageData1_1_split_1
I0928 20:28:00.002967  8808 net.cpp:150] Setting up ImageData2_ImageData1_1_split
I0928 20:28:00.002967  8808 net.cpp:157] Top shape: 1 (1)
I0928 20:28:00.002967  8808 net.cpp:157] Top shape: 1 (1)
I0928 20:28:00.002967  8808 net.cpp:165] Memory required for data: 150540
I0928 20:28:00.002967  8808 layer_factory.cpp:58] Creating layer Convolution1
I0928 20:28:00.002967  8808 net.cpp:100] Creating Layer Convolution1
I0928 20:28:00.002967  8808 net.cpp:434] Convolution1 <- ImageData1_ImageData1_0_split_0
I0928 20:28:00.002967  8808 net.cpp:408] Convolution1 -> Convolution1
I0928 20:28:00.002967  8808 net.cpp:150] Setting up Convolution1
I0928 20:28:00.002967  8808 net.cpp:157] Top shape: 1 16 112 112 (200704)
I0928 20:28:00.002967  8808 net.cpp:165] Memory required for data: 953356
I0928 20:28:00.002967  8808 layer_factory.cpp:58] Creating layer Pooling1
I0928 20:28:00.002967  8808 net.cpp:100] Creating Layer Pooling1
I0928 20:28:00.002967  8808 net.cpp:434] Pooling1 <- Convolution1
I0928 20:28:00.002967  8808 net.cpp:408] Pooling1 -> Pooling1
I0928 20:28:00.002967  8808 net.cpp:150] Setting up Pooling1
I0928 20:28:00.002967  8808 net.cpp:157] Top shape: 1 16 56 56 (50176)
I0928 20:28:00.002967  8808 net.cpp:165] Memory required for data: 1154060
I0928 20:28:00.002967  8808 layer_factory.cpp:58] Creating layer Convolution2
I0928 20:28:00.002967  8808 net.cpp:100] Creating Layer Convolution2
I0928 20:28:00.002967  8808 net.cpp:434] Convolution2 <- Pooling1
I0928 20:28:00.002967  8808 net.cpp:408] Convolution2 -> Convolution2
I0928 20:28:00.002967  8808 net.cpp:150] Setting up Convolution2
I0928 20:28:00.002967  8808 net.cpp:157] Top shape: 1 16 56 56 (50176)
I0928 20:28:00.002967  8808 net.cpp:165] Memory required for data: 1354764
I0928 20:28:00.002967  8808 layer_factory.cpp:58] Creating layer Pooling2
I0928 20:28:00.002967  8808 net.cpp:100] Creating Layer Pooling2
I0928 20:28:00.002967  8808 net.cpp:434] Pooling2 <- Convolution2
I0928 20:28:00.002967  8808 net.cpp:408] Pooling2 -> Pooling2
I0928 20:28:00.002967  8808 net.cpp:150] Setting up Pooling2
I0928 20:28:00.002967  8808 net.cpp:157] Top shape: 1 16 28 28 (12544)
I0928 20:28:00.002967  8808 net.cpp:165] Memory required for data: 1404940
I0928 20:28:00.002967  8808 layer_factory.cpp:58] Creating layer InnerProduct1
I0928 20:28:00.002967  8808 net.cpp:100] Creating Layer InnerProduct1
I0928 20:28:00.002967  8808 net.cpp:434] InnerProduct1 <- Pooling2
I0928 20:28:00.002967  8808 net.cpp:408] InnerProduct1 -> InnerProduct1
I0928 20:28:00.002967  8808 net.cpp:150] Setting up InnerProduct1
I0928 20:28:00.002967  8808 net.cpp:157] Top shape: 1 16 (16)
I0928 20:28:00.002967  8808 net.cpp:165] Memory required for data: 1405004
I0928 20:28:00.002967  8808 layer_factory.cpp:58] Creating layer InnerProduct2
I0928 20:28:00.002967  8808 net.cpp:100] Creating Layer InnerProduct2
I0928 20:28:00.002967  8808 net.cpp:434] InnerProduct2 <- InnerProduct1
I0928 20:28:00.002967  8808 net.cpp:408] InnerProduct2 -> InnerProduct2
I0928 20:28:00.002967  8808 net.cpp:150] Setting up InnerProduct2
I0928 20:28:00.018568  8808 net.cpp:157] Top shape: 1 16 (16)
I0928 20:28:00.018568  8808 net.cpp:165] Memory required for data: 1405068
I0928 20:28:00.018568  8808 layer_factory.cpp:58] Creating layer InnerProduct3
I0928 20:28:00.018568  8808 net.cpp:100] Creating Layer InnerProduct3
I0928 20:28:00.018568  8808 net.cpp:434] InnerProduct3 <- InnerProduct2
I0928 20:28:00.018568  8808 net.cpp:408] InnerProduct3 -> InnerProduct3
I0928 20:28:00.018568  8808 net.cpp:150] Setting up InnerProduct3
I0928 20:28:00.018568  8808 net.cpp:157] Top shape: 1 6 (6)
I0928 20:28:00.018568  8808 net.cpp:165] Memory required for data: 1405092
I0928 20:28:00.018568  8808 layer_factory.cpp:58] Creating layer Transformer1
I0928 20:28:00.018568  8808 net.cpp:100] Creating Layer Transformer1
I0928 20:28:00.018568  8808 net.cpp:434] Transformer1 <- ImageData1_ImageData1_0_split_1
I0928 20:28:00.018568  8808 net.cpp:434] Transformer1 <- InnerProduct3
I0928 20:28:00.018568  8808 net.cpp:408] Transformer1 -> Transformer1
I0928 20:28:00.018568  8808 net.cpp:150] Setting up Transformer1
I0928 20:28:00.018568  8808 net.cpp:157] Top shape: 1 1 112 112 (12544)
I0928 20:28:00.018568  8808 net.cpp:165] Memory required for data: 1455268
I0928 20:28:00.018568  8808 layer_factory.cpp:58] Creating layer Convolution3
I0928 20:28:00.018568  8808 net.cpp:100] Creating Layer Convolution3
I0928 20:28:00.018568  8808 net.cpp:434] Convolution3 <- Transformer1
I0928 20:28:00.018568  8808 net.cpp:408] Convolution3 -> Convolution3
I0928 20:28:00.018568  8808 net.cpp:150] Setting up Convolution3
I0928 20:28:00.018568  8808 net.cpp:157] Top shape: 1 16 112 112 (200704)
I0928 20:28:00.018568  8808 net.cpp:165] Memory required for data: 2258084
I0928 20:28:00.018568  8808 layer_factory.cpp:58] Creating layer BatchNorm1
I0928 20:28:00.018568  8808 net.cpp:100] Creating Layer BatchNorm1
I0928 20:28:00.018568  8808 net.cpp:434] BatchNorm1 <- Convolution3
I0928 20:28:00.018568  8808 net.cpp:395] BatchNorm1 -> Convolution3 (in-place)
I0928 20:28:00.018568  8808 net.cpp:150] Setting up BatchNorm1
I0928 20:28:00.018568  8808 net.cpp:157] Top shape: 1 16 112 112 (200704)
I0928 20:28:00.018568  8808 net.cpp:165] Memory required for data: 3060900
I0928 20:28:00.018568  8808 layer_factory.cpp:58] Creating layer Scale1
I0928 20:28:00.018568  8808 net.cpp:100] Creating Layer Scale1
I0928 20:28:00.018568  8808 net.cpp:434] Scale1 <- Convolution3
I0928 20:28:00.018568  8808 net.cpp:395] Scale1 -> Convolution3 (in-place)
I0928 20:28:00.018568  8808 layer_factory.cpp:58] Creating layer Scale1
I0928 20:28:00.018568  8808 net.cpp:150] Setting up Scale1
I0928 20:28:00.018568  8808 net.cpp:157] Top shape: 1 16 112 112 (200704)
I0928 20:28:00.018568  8808 net.cpp:165] Memory required for data: 3863716
I0928 20:28:00.018568  8808 layer_factory.cpp:58] Creating layer ReLU1
I0928 20:28:00.018568  8808 net.cpp:100] Creating Layer ReLU1
I0928 20:28:00.018568  8808 net.cpp:434] ReLU1 <- Convolution3
I0928 20:28:00.018568  8808 net.cpp:395] ReLU1 -> Convolution3 (in-place)
I0928 20:28:00.018568  8808 net.cpp:150] Setting up ReLU1
I0928 20:28:00.018568  8808 net.cpp:157] Top shape: 1 16 112 112 (200704)
I0928 20:28:00.018568  8808 net.cpp:165] Memory required for data: 4666532
I0928 20:28:00.018568  8808 layer_factory.cpp:58] Creating layer Convolution3_ReLU1_0_split
I0928 20:28:00.018568  8808 net.cpp:100] Creating Layer Convolution3_ReLU1_0_split
I0928 20:28:00.018568  8808 net.cpp:434] Convolution3_ReLU1_0_split <- Convolution3
I0928 20:28:00.018568  8808 net.cpp:408] Convolution3_ReLU1_0_split -> Convolution3_ReLU1_0_split_0
I0928 20:28:00.018568  8808 net.cpp:408] Convolution3_ReLU1_0_split -> Convolution3_ReLU1_0_split_1
I0928 20:28:00.018568  8808 net.cpp:150] Setting up Convolution3_ReLU1_0_split
I0928 20:28:00.018568  8808 net.cpp:157] Top shape: 1 16 112 112 (200704)
I0928 20:28:00.018568  8808 net.cpp:157] Top shape: 1 16 112 112 (200704)
I0928 20:28:00.018568  8808 net.cpp:165] Memory required for data: 6272164
I0928 20:28:00.018568  8808 layer_factory.cpp:58] Creating layer Convolution4
I0928 20:28:00.018568  8808 net.cpp:100] Creating Layer Convolution4
I0928 20:28:00.018568  8808 net.cpp:434] Convolution4 <- Convolution3_ReLU1_0_split_0
I0928 20:28:00.018568  8808 net.cpp:408] Convolution4 -> Convolution4
I0928 20:28:00.018568  8808 net.cpp:150] Setting up Convolution4
I0928 20:28:00.018568  8808 net.cpp:157] Top shape: 1 16 112 112 (200704)
I0928 20:28:00.018568  8808 net.cpp:165] Memory required for data: 7074980
I0928 20:28:00.018568  8808 layer_factory.cpp:58] Creating layer BatchNorm2
I0928 20:28:00.018568  8808 net.cpp:100] Creating Layer BatchNorm2
I0928 20:28:00.018568  8808 net.cpp:434] BatchNorm2 <- Convolution4
I0928 20:28:00.018568  8808 net.cpp:395] BatchNorm2 -> Convolution4 (in-place)
I0928 20:28:00.018568  8808 net.cpp:150] Setting up BatchNorm2
I0928 20:28:00.018568  8808 net.cpp:157] Top shape: 1 16 112 112 (200704)
I0928 20:28:00.018568  8808 net.cpp:165] Memory required for data: 7877796
I0928 20:28:00.018568  8808 layer_factory.cpp:58] Creating layer Scale2
I0928 20:28:00.018568  8808 net.cpp:100] Creating Layer Scale2
I0928 20:28:00.018568  8808 net.cpp:434] Scale2 <- Convolution4
I0928 20:28:00.018568  8808 net.cpp:395] Scale2 -> Convolution4 (in-place)
I0928 20:28:00.018568  8808 layer_factory.cpp:58] Creating layer Scale2
I0928 20:28:00.018568  8808 net.cpp:150] Setting up Scale2
I0928 20:28:00.018568  8808 net.cpp:157] Top shape: 1 16 112 112 (200704)
I0928 20:28:00.018568  8808 net.cpp:165] Memory required for data: 8680612
I0928 20:28:00.018568  8808 layer_factory.cpp:58] Creating layer ReLU2
I0928 20:28:00.018568  8808 net.cpp:100] Creating Layer ReLU2
I0928 20:28:00.018568  8808 net.cpp:434] ReLU2 <- Convolution4
I0928 20:28:00.018568  8808 net.cpp:395] ReLU2 -> Convolution4 (in-place)
I0928 20:28:00.018568  8808 net.cpp:150] Setting up ReLU2
I0928 20:28:00.018568  8808 net.cpp:157] Top shape: 1 16 112 112 (200704)
I0928 20:28:00.018568  8808 net.cpp:165] Memory required for data: 9483428
I0928 20:28:00.018568  8808 layer_factory.cpp:58] Creating layer Convolution5
I0928 20:28:00.018568  8808 net.cpp:100] Creating Layer Convolution5
I0928 20:28:00.018568  8808 net.cpp:434] Convolution5 <- Convolution4
I0928 20:28:00.018568  8808 net.cpp:408] Convolution5 -> Convolution5
I0928 20:28:00.018568  8808 net.cpp:150] Setting up Convolution5
I0928 20:28:00.018568  8808 net.cpp:157] Top shape: 1 16 112 112 (200704)
I0928 20:28:00.018568  8808 net.cpp:165] Memory required for data: 10286244
I0928 20:28:00.018568  8808 layer_factory.cpp:58] Creating layer BatchNorm3
I0928 20:28:00.018568  8808 net.cpp:100] Creating Layer BatchNorm3
I0928 20:28:00.018568  8808 net.cpp:434] BatchNorm3 <- Convolution5
I0928 20:28:00.018568  8808 net.cpp:395] BatchNorm3 -> Convolution5 (in-place)
I0928 20:28:00.018568  8808 net.cpp:150] Setting up BatchNorm3
I0928 20:28:00.018568  8808 net.cpp:157] Top shape: 1 16 112 112 (200704)
I0928 20:28:00.018568  8808 net.cpp:165] Memory required for data: 11089060
I0928 20:28:00.018568  8808 layer_factory.cpp:58] Creating layer Scale3
I0928 20:28:00.018568  8808 net.cpp:100] Creating Layer Scale3
I0928 20:28:00.018568  8808 net.cpp:434] Scale3 <- Convolution5
I0928 20:28:00.018568  8808 net.cpp:395] Scale3 -> Convolution5 (in-place)
I0928 20:28:00.018568  8808 layer_factory.cpp:58] Creating layer Scale3
I0928 20:28:00.018568  8808 net.cpp:150] Setting up Scale3
I0928 20:28:00.018568  8808 net.cpp:157] Top shape: 1 16 112 112 (200704)
I0928 20:28:00.018568  8808 net.cpp:165] Memory required for data: 11891876
I0928 20:28:00.018568  8808 layer_factory.cpp:58] Creating layer Eltwise1
I0928 20:28:00.018568  8808 net.cpp:100] Creating Layer Eltwise1
I0928 20:28:00.018568  8808 net.cpp:434] Eltwise1 <- Convolution3_ReLU1_0_split_1
I0928 20:28:00.018568  8808 net.cpp:434] Eltwise1 <- Convolution5
I0928 20:28:00.018568  8808 net.cpp:408] Eltwise1 -> Eltwise1
I0928 20:28:00.018568  8808 net.cpp:150] Setting up Eltwise1
I0928 20:28:00.018568  8808 net.cpp:157] Top shape: 1 16 112 112 (200704)
I0928 20:28:00.018568  8808 net.cpp:165] Memory required for data: 12694692
I0928 20:28:00.018568  8808 layer_factory.cpp:58] Creating layer Eltwise1_Eltwise1_0_split
I0928 20:28:00.018568  8808 net.cpp:100] Creating Layer Eltwise1_Eltwise1_0_split
I0928 20:28:00.018568  8808 net.cpp:434] Eltwise1_Eltwise1_0_split <- Eltwise1
I0928 20:28:00.018568  8808 net.cpp:408] Eltwise1_Eltwise1_0_split -> Eltwise1_Eltwise1_0_split_0
I0928 20:28:00.018568  8808 net.cpp:408] Eltwise1_Eltwise1_0_split -> Eltwise1_Eltwise1_0_split_1
I0928 20:28:00.018568  8808 net.cpp:150] Setting up Eltwise1_Eltwise1_0_split
I0928 20:28:00.018568  8808 net.cpp:157] Top shape: 1 16 112 112 (200704)
I0928 20:28:00.018568  8808 net.cpp:157] Top shape: 1 16 112 112 (200704)
I0928 20:28:00.018568  8808 net.cpp:165] Memory required for data: 14300324
I0928 20:28:00.018568  8808 layer_factory.cpp:58] Creating layer Convolution6
I0928 20:28:00.018568  8808 net.cpp:100] Creating Layer Convolution6
I0928 20:28:00.018568  8808 net.cpp:434] Convolution6 <- Eltwise1_Eltwise1_0_split_0
I0928 20:28:00.018568  8808 net.cpp:408] Convolution6 -> Convolution6
I0928 20:28:00.018568  8808 net.cpp:150] Setting up Convolution6
I0928 20:28:00.018568  8808 net.cpp:157] Top shape: 1 16 112 112 (200704)
I0928 20:28:00.018568  8808 net.cpp:165] Memory required for data: 15103140
I0928 20:28:00.018568  8808 layer_factory.cpp:58] Creating layer BatchNorm4
I0928 20:28:00.018568  8808 net.cpp:100] Creating Layer BatchNorm4
I0928 20:28:00.018568  8808 net.cpp:434] BatchNorm4 <- Convolution6
I0928 20:28:00.018568  8808 net.cpp:395] BatchNorm4 -> Convolution6 (in-place)
I0928 20:28:00.034168  8808 net.cpp:150] Setting up BatchNorm4
I0928 20:28:00.034168  8808 net.cpp:157] Top shape: 1 16 112 112 (200704)
I0928 20:28:00.034168  8808 net.cpp:165] Memory required for data: 15905956
I0928 20:28:00.034168  8808 layer_factory.cpp:58] Creating layer Scale4
I0928 20:28:00.034168  8808 net.cpp:100] Creating Layer Scale4
I0928 20:28:00.034168  8808 net.cpp:434] Scale4 <- Convolution6
I0928 20:28:00.034168  8808 net.cpp:395] Scale4 -> Convolution6 (in-place)
I0928 20:28:00.034168  8808 layer_factory.cpp:58] Creating layer Scale4
I0928 20:28:00.034168  8808 net.cpp:150] Setting up Scale4
I0928 20:28:00.034168  8808 net.cpp:157] Top shape: 1 16 112 112 (200704)
I0928 20:28:00.034168  8808 net.cpp:165] Memory required for data: 16708772
I0928 20:28:00.034168  8808 layer_factory.cpp:58] Creating layer ReLU3
I0928 20:28:00.034168  8808 net.cpp:100] Creating Layer ReLU3
I0928 20:28:00.034168  8808 net.cpp:434] ReLU3 <- Convolution6
I0928 20:28:00.034168  8808 net.cpp:395] ReLU3 -> Convolution6 (in-place)
I0928 20:28:00.034168  8808 net.cpp:150] Setting up ReLU3
I0928 20:28:00.034168  8808 net.cpp:157] Top shape: 1 16 112 112 (200704)
I0928 20:28:00.034168  8808 net.cpp:165] Memory required for data: 17511588
I0928 20:28:00.034168  8808 layer_factory.cpp:58] Creating layer Convolution7
I0928 20:28:00.034168  8808 net.cpp:100] Creating Layer Convolution7
I0928 20:28:00.034168  8808 net.cpp:434] Convolution7 <- Convolution6
I0928 20:28:00.034168  8808 net.cpp:408] Convolution7 -> Convolution7
I0928 20:28:00.034168  8808 net.cpp:150] Setting up Convolution7
I0928 20:28:00.034168  8808 net.cpp:157] Top shape: 1 16 112 112 (200704)
I0928 20:28:00.034168  8808 net.cpp:165] Memory required for data: 18314404
I0928 20:28:00.034168  8808 layer_factory.cpp:58] Creating layer BatchNorm5
I0928 20:28:00.034168  8808 net.cpp:100] Creating Layer BatchNorm5
I0928 20:28:00.034168  8808 net.cpp:434] BatchNorm5 <- Convolution7
I0928 20:28:00.034168  8808 net.cpp:395] BatchNorm5 -> Convolution7 (in-place)
I0928 20:28:00.034168  8808 net.cpp:150] Setting up BatchNorm5
I0928 20:28:00.034168  8808 net.cpp:157] Top shape: 1 16 112 112 (200704)
I0928 20:28:00.034168  8808 net.cpp:165] Memory required for data: 19117220
I0928 20:28:00.034168  8808 layer_factory.cpp:58] Creating layer Scale5
I0928 20:28:00.034168  8808 net.cpp:100] Creating Layer Scale5
I0928 20:28:00.034168  8808 net.cpp:434] Scale5 <- Convolution7
I0928 20:28:00.034168  8808 net.cpp:395] Scale5 -> Convolution7 (in-place)
I0928 20:28:00.034168  8808 layer_factory.cpp:58] Creating layer Scale5
I0928 20:28:00.034168  8808 net.cpp:150] Setting up Scale5
I0928 20:28:00.034168  8808 net.cpp:157] Top shape: 1 16 112 112 (200704)
I0928 20:28:00.034168  8808 net.cpp:165] Memory required for data: 19920036
I0928 20:28:00.034168  8808 layer_factory.cpp:58] Creating layer Eltwise2
I0928 20:28:00.034168  8808 net.cpp:100] Creating Layer Eltwise2
I0928 20:28:00.034168  8808 net.cpp:434] Eltwise2 <- Eltwise1_Eltwise1_0_split_1
I0928 20:28:00.034168  8808 net.cpp:434] Eltwise2 <- Convolution7
I0928 20:28:00.034168  8808 net.cpp:408] Eltwise2 -> Eltwise2
I0928 20:28:00.034168  8808 net.cpp:150] Setting up Eltwise2
I0928 20:28:00.034168  8808 net.cpp:157] Top shape: 1 16 112 112 (200704)
I0928 20:28:00.034168  8808 net.cpp:165] Memory required for data: 20722852
I0928 20:28:00.034168  8808 layer_factory.cpp:58] Creating layer Eltwise2_Eltwise2_0_split
I0928 20:28:00.034168  8808 net.cpp:100] Creating Layer Eltwise2_Eltwise2_0_split
I0928 20:28:00.034168  8808 net.cpp:434] Eltwise2_Eltwise2_0_split <- Eltwise2
I0928 20:28:00.034168  8808 net.cpp:408] Eltwise2_Eltwise2_0_split -> Eltwise2_Eltwise2_0_split_0
I0928 20:28:00.034168  8808 net.cpp:408] Eltwise2_Eltwise2_0_split -> Eltwise2_Eltwise2_0_split_1
I0928 20:28:00.034168  8808 net.cpp:150] Setting up Eltwise2_Eltwise2_0_split
I0928 20:28:00.034168  8808 net.cpp:157] Top shape: 1 16 112 112 (200704)
I0928 20:28:00.034168  8808 net.cpp:157] Top shape: 1 16 112 112 (200704)
I0928 20:28:00.034168  8808 net.cpp:165] Memory required for data: 22328484
I0928 20:28:00.034168  8808 layer_factory.cpp:58] Creating layer Convolution8
I0928 20:28:00.034168  8808 net.cpp:100] Creating Layer Convolution8
I0928 20:28:00.034168  8808 net.cpp:434] Convolution8 <- Eltwise2_Eltwise2_0_split_0
I0928 20:28:00.034168  8808 net.cpp:408] Convolution8 -> Convolution8
I0928 20:28:00.034168  8808 net.cpp:150] Setting up Convolution8
I0928 20:28:00.034168  8808 net.cpp:157] Top shape: 1 16 112 112 (200704)
I0928 20:28:00.034168  8808 net.cpp:165] Memory required for data: 23131300
I0928 20:28:00.034168  8808 layer_factory.cpp:58] Creating layer BatchNorm6
I0928 20:28:00.034168  8808 net.cpp:100] Creating Layer BatchNorm6
I0928 20:28:00.034168  8808 net.cpp:434] BatchNorm6 <- Convolution8
I0928 20:28:00.034168  8808 net.cpp:395] BatchNorm6 -> Convolution8 (in-place)
I0928 20:28:00.034168  8808 net.cpp:150] Setting up BatchNorm6
I0928 20:28:00.034168  8808 net.cpp:157] Top shape: 1 16 112 112 (200704)
I0928 20:28:00.034168  8808 net.cpp:165] Memory required for data: 23934116
I0928 20:28:00.034168  8808 layer_factory.cpp:58] Creating layer Scale6
I0928 20:28:00.034168  8808 net.cpp:100] Creating Layer Scale6
I0928 20:28:00.034168  8808 net.cpp:434] Scale6 <- Convolution8
I0928 20:28:00.034168  8808 net.cpp:395] Scale6 -> Convolution8 (in-place)
I0928 20:28:00.034168  8808 layer_factory.cpp:58] Creating layer Scale6
I0928 20:28:00.034168  8808 net.cpp:150] Setting up Scale6
I0928 20:28:00.034168  8808 net.cpp:157] Top shape: 1 16 112 112 (200704)
I0928 20:28:00.034168  8808 net.cpp:165] Memory required for data: 24736932
I0928 20:28:00.034168  8808 layer_factory.cpp:58] Creating layer ReLU4
I0928 20:28:00.034168  8808 net.cpp:100] Creating Layer ReLU4
I0928 20:28:00.034168  8808 net.cpp:434] ReLU4 <- Convolution8
I0928 20:28:00.034168  8808 net.cpp:395] ReLU4 -> Convolution8 (in-place)
I0928 20:28:00.034168  8808 net.cpp:150] Setting up ReLU4
I0928 20:28:00.034168  8808 net.cpp:157] Top shape: 1 16 112 112 (200704)
I0928 20:28:00.034168  8808 net.cpp:165] Memory required for data: 25539748
I0928 20:28:00.034168  8808 layer_factory.cpp:58] Creating layer Convolution9
I0928 20:28:00.034168  8808 net.cpp:100] Creating Layer Convolution9
I0928 20:28:00.034168  8808 net.cpp:434] Convolution9 <- Convolution8
I0928 20:28:00.034168  8808 net.cpp:408] Convolution9 -> Convolution9
I0928 20:28:00.034168  8808 net.cpp:150] Setting up Convolution9
I0928 20:28:00.034168  8808 net.cpp:157] Top shape: 1 16 112 112 (200704)
I0928 20:28:00.034168  8808 net.cpp:165] Memory required for data: 26342564
I0928 20:28:00.034168  8808 layer_factory.cpp:58] Creating layer BatchNorm7
I0928 20:28:00.034168  8808 net.cpp:100] Creating Layer BatchNorm7
I0928 20:28:00.034168  8808 net.cpp:434] BatchNorm7 <- Convolution9
I0928 20:28:00.034168  8808 net.cpp:395] BatchNorm7 -> Convolution9 (in-place)
I0928 20:28:00.034168  8808 net.cpp:150] Setting up BatchNorm7
I0928 20:28:00.034168  8808 net.cpp:157] Top shape: 1 16 112 112 (200704)
I0928 20:28:00.034168  8808 net.cpp:165] Memory required for data: 27145380
I0928 20:28:00.034168  8808 layer_factory.cpp:58] Creating layer Scale7
I0928 20:28:00.034168  8808 net.cpp:100] Creating Layer Scale7
I0928 20:28:00.034168  8808 net.cpp:434] Scale7 <- Convolution9
I0928 20:28:00.034168  8808 net.cpp:395] Scale7 -> Convolution9 (in-place)
I0928 20:28:00.034168  8808 layer_factory.cpp:58] Creating layer Scale7
I0928 20:28:00.034168  8808 net.cpp:150] Setting up Scale7
I0928 20:28:00.034168  8808 net.cpp:157] Top shape: 1 16 112 112 (200704)
I0928 20:28:00.034168  8808 net.cpp:165] Memory required for data: 27948196
I0928 20:28:00.034168  8808 layer_factory.cpp:58] Creating layer Eltwise3
I0928 20:28:00.034168  8808 net.cpp:100] Creating Layer Eltwise3
I0928 20:28:00.034168  8808 net.cpp:434] Eltwise3 <- Eltwise2_Eltwise2_0_split_1
I0928 20:28:00.034168  8808 net.cpp:434] Eltwise3 <- Convolution9
I0928 20:28:00.034168  8808 net.cpp:408] Eltwise3 -> Eltwise3
I0928 20:28:00.034168  8808 net.cpp:150] Setting up Eltwise3
I0928 20:28:00.034168  8808 net.cpp:157] Top shape: 1 16 112 112 (200704)
I0928 20:28:00.034168  8808 net.cpp:165] Memory required for data: 28751012
I0928 20:28:00.034168  8808 layer_factory.cpp:58] Creating layer Eltwise3_Eltwise3_0_split
I0928 20:28:00.034168  8808 net.cpp:100] Creating Layer Eltwise3_Eltwise3_0_split
I0928 20:28:00.034168  8808 net.cpp:434] Eltwise3_Eltwise3_0_split <- Eltwise3
I0928 20:28:00.034168  8808 net.cpp:408] Eltwise3_Eltwise3_0_split -> Eltwise3_Eltwise3_0_split_0
I0928 20:28:00.034168  8808 net.cpp:408] Eltwise3_Eltwise3_0_split -> Eltwise3_Eltwise3_0_split_1
I0928 20:28:00.034168  8808 net.cpp:150] Setting up Eltwise3_Eltwise3_0_split
I0928 20:28:00.034168  8808 net.cpp:157] Top shape: 1 16 112 112 (200704)
I0928 20:28:00.034168  8808 net.cpp:157] Top shape: 1 16 112 112 (200704)
I0928 20:28:00.034168  8808 net.cpp:165] Memory required for data: 30356644
I0928 20:28:00.034168  8808 layer_factory.cpp:58] Creating layer Convolution10
I0928 20:28:00.034168  8808 net.cpp:100] Creating Layer Convolution10
I0928 20:28:00.034168  8808 net.cpp:434] Convolution10 <- Eltwise3_Eltwise3_0_split_0
I0928 20:28:00.034168  8808 net.cpp:408] Convolution10 -> Convolution10
I0928 20:28:00.034168  8808 net.cpp:150] Setting up Convolution10
I0928 20:28:00.034168  8808 net.cpp:157] Top shape: 1 32 56 56 (100352)
I0928 20:28:00.034168  8808 net.cpp:165] Memory required for data: 30758052
I0928 20:28:00.034168  8808 layer_factory.cpp:58] Creating layer BatchNorm8
I0928 20:28:00.034168  8808 net.cpp:100] Creating Layer BatchNorm8
I0928 20:28:00.034168  8808 net.cpp:434] BatchNorm8 <- Convolution10
I0928 20:28:00.034168  8808 net.cpp:395] BatchNorm8 -> Convolution10 (in-place)
I0928 20:28:00.034168  8808 net.cpp:150] Setting up BatchNorm8
I0928 20:28:00.034168  8808 net.cpp:157] Top shape: 1 32 56 56 (100352)
I0928 20:28:00.034168  8808 net.cpp:165] Memory required for data: 31159460
I0928 20:28:00.034168  8808 layer_factory.cpp:58] Creating layer Scale8
I0928 20:28:00.034168  8808 net.cpp:100] Creating Layer Scale8
I0928 20:28:00.034168  8808 net.cpp:434] Scale8 <- Convolution10
I0928 20:28:00.049767  8808 net.cpp:395] Scale8 -> Convolution10 (in-place)
I0928 20:28:00.049767  8808 layer_factory.cpp:58] Creating layer Scale8
I0928 20:28:00.049767  8808 net.cpp:150] Setting up Scale8
I0928 20:28:00.049767  8808 net.cpp:157] Top shape: 1 32 56 56 (100352)
I0928 20:28:00.049767  8808 net.cpp:165] Memory required for data: 31560868
I0928 20:28:00.049767  8808 layer_factory.cpp:58] Creating layer ReLU5
I0928 20:28:00.049767  8808 net.cpp:100] Creating Layer ReLU5
I0928 20:28:00.049767  8808 net.cpp:434] ReLU5 <- Convolution10
I0928 20:28:00.049767  8808 net.cpp:395] ReLU5 -> Convolution10 (in-place)
I0928 20:28:00.049767  8808 net.cpp:150] Setting up ReLU5
I0928 20:28:00.049767  8808 net.cpp:157] Top shape: 1 32 56 56 (100352)
I0928 20:28:00.049767  8808 net.cpp:165] Memory required for data: 31962276
I0928 20:28:00.049767  8808 layer_factory.cpp:58] Creating layer Convolution11
I0928 20:28:00.049767  8808 net.cpp:100] Creating Layer Convolution11
I0928 20:28:00.049767  8808 net.cpp:434] Convolution11 <- Convolution10
I0928 20:28:00.049767  8808 net.cpp:408] Convolution11 -> Convolution11
I0928 20:28:00.049767  8808 net.cpp:150] Setting up Convolution11
I0928 20:28:00.049767  8808 net.cpp:157] Top shape: 1 32 56 56 (100352)
I0928 20:28:00.049767  8808 net.cpp:165] Memory required for data: 32363684
I0928 20:28:00.049767  8808 layer_factory.cpp:58] Creating layer BatchNorm9
I0928 20:28:00.049767  8808 net.cpp:100] Creating Layer BatchNorm9
I0928 20:28:00.049767  8808 net.cpp:434] BatchNorm9 <- Convolution11
I0928 20:28:00.049767  8808 net.cpp:395] BatchNorm9 -> Convolution11 (in-place)
I0928 20:28:00.049767  8808 net.cpp:150] Setting up BatchNorm9
I0928 20:28:00.049767  8808 net.cpp:157] Top shape: 1 32 56 56 (100352)
I0928 20:28:00.049767  8808 net.cpp:165] Memory required for data: 32765092
I0928 20:28:00.049767  8808 layer_factory.cpp:58] Creating layer Scale9
I0928 20:28:00.049767  8808 net.cpp:100] Creating Layer Scale9
I0928 20:28:00.049767  8808 net.cpp:434] Scale9 <- Convolution11
I0928 20:28:00.049767  8808 net.cpp:395] Scale9 -> Convolution11 (in-place)
I0928 20:28:00.049767  8808 layer_factory.cpp:58] Creating layer Scale9
I0928 20:28:00.049767  8808 net.cpp:150] Setting up Scale9
I0928 20:28:00.049767  8808 net.cpp:157] Top shape: 1 32 56 56 (100352)
I0928 20:28:00.049767  8808 net.cpp:165] Memory required for data: 33166500
I0928 20:28:00.049767  8808 layer_factory.cpp:58] Creating layer Pooling3
I0928 20:28:00.049767  8808 net.cpp:100] Creating Layer Pooling3
I0928 20:28:00.049767  8808 net.cpp:434] Pooling3 <- Eltwise3_Eltwise3_0_split_1
I0928 20:28:00.049767  8808 net.cpp:408] Pooling3 -> Pooling3
I0928 20:28:00.049767  8808 net.cpp:150] Setting up Pooling3
I0928 20:28:00.049767  8808 net.cpp:157] Top shape: 1 16 56 56 (50176)
I0928 20:28:00.049767  8808 net.cpp:165] Memory required for data: 33367204
I0928 20:28:00.049767  8808 layer_factory.cpp:58] Creating layer PadChannel1
I0928 20:28:00.049767  8808 net.cpp:100] Creating Layer PadChannel1
I0928 20:28:00.049767  8808 net.cpp:434] PadChannel1 <- Pooling3
I0928 20:28:00.049767  8808 net.cpp:408] PadChannel1 -> PadChannel1
I0928 20:28:00.049767  8808 net.cpp:150] Setting up PadChannel1
I0928 20:28:00.049767  8808 net.cpp:157] Top shape: 1 32 56 56 (100352)
I0928 20:28:00.049767  8808 net.cpp:165] Memory required for data: 33768612
I0928 20:28:00.049767  8808 layer_factory.cpp:58] Creating layer Eltwise4
I0928 20:28:00.049767  8808 net.cpp:100] Creating Layer Eltwise4
I0928 20:28:00.049767  8808 net.cpp:434] Eltwise4 <- Convolution11
I0928 20:28:00.049767  8808 net.cpp:434] Eltwise4 <- PadChannel1
I0928 20:28:00.049767  8808 net.cpp:408] Eltwise4 -> Eltwise4
I0928 20:28:00.049767  8808 net.cpp:150] Setting up Eltwise4
I0928 20:28:00.049767  8808 net.cpp:157] Top shape: 1 32 56 56 (100352)
I0928 20:28:00.049767  8808 net.cpp:165] Memory required for data: 34170020
I0928 20:28:00.049767  8808 layer_factory.cpp:58] Creating layer Eltwise4_Eltwise4_0_split
I0928 20:28:00.049767  8808 net.cpp:100] Creating Layer Eltwise4_Eltwise4_0_split
I0928 20:28:00.049767  8808 net.cpp:434] Eltwise4_Eltwise4_0_split <- Eltwise4
I0928 20:28:00.049767  8808 net.cpp:408] Eltwise4_Eltwise4_0_split -> Eltwise4_Eltwise4_0_split_0
I0928 20:28:00.049767  8808 net.cpp:408] Eltwise4_Eltwise4_0_split -> Eltwise4_Eltwise4_0_split_1
I0928 20:28:00.049767  8808 net.cpp:150] Setting up Eltwise4_Eltwise4_0_split
I0928 20:28:00.049767  8808 net.cpp:157] Top shape: 1 32 56 56 (100352)
I0928 20:28:00.049767  8808 net.cpp:157] Top shape: 1 32 56 56 (100352)
I0928 20:28:00.049767  8808 net.cpp:165] Memory required for data: 34972836
I0928 20:28:00.049767  8808 layer_factory.cpp:58] Creating layer Convolution12
I0928 20:28:00.049767  8808 net.cpp:100] Creating Layer Convolution12
I0928 20:28:00.049767  8808 net.cpp:434] Convolution12 <- Eltwise4_Eltwise4_0_split_0
I0928 20:28:00.049767  8808 net.cpp:408] Convolution12 -> Convolution12
I0928 20:28:00.049767  8808 net.cpp:150] Setting up Convolution12
I0928 20:28:00.049767  8808 net.cpp:157] Top shape: 1 32 56 56 (100352)
I0928 20:28:00.049767  8808 net.cpp:165] Memory required for data: 35374244
I0928 20:28:00.049767  8808 layer_factory.cpp:58] Creating layer BatchNorm10
I0928 20:28:00.049767  8808 net.cpp:100] Creating Layer BatchNorm10
I0928 20:28:00.049767  8808 net.cpp:434] BatchNorm10 <- Convolution12
I0928 20:28:00.049767  8808 net.cpp:395] BatchNorm10 -> Convolution12 (in-place)
I0928 20:28:00.049767  8808 net.cpp:150] Setting up BatchNorm10
I0928 20:28:00.049767  8808 net.cpp:157] Top shape: 1 32 56 56 (100352)
I0928 20:28:00.049767  8808 net.cpp:165] Memory required for data: 35775652
I0928 20:28:00.049767  8808 layer_factory.cpp:58] Creating layer Scale10
I0928 20:28:00.049767  8808 net.cpp:100] Creating Layer Scale10
I0928 20:28:00.049767  8808 net.cpp:434] Scale10 <- Convolution12
I0928 20:28:00.049767  8808 net.cpp:395] Scale10 -> Convolution12 (in-place)
I0928 20:28:00.049767  8808 layer_factory.cpp:58] Creating layer Scale10
I0928 20:28:00.049767  8808 net.cpp:150] Setting up Scale10
I0928 20:28:00.049767  8808 net.cpp:157] Top shape: 1 32 56 56 (100352)
I0928 20:28:00.049767  8808 net.cpp:165] Memory required for data: 36177060
I0928 20:28:00.049767  8808 layer_factory.cpp:58] Creating layer ReLU6
I0928 20:28:00.049767  8808 net.cpp:100] Creating Layer ReLU6
I0928 20:28:00.049767  8808 net.cpp:434] ReLU6 <- Convolution12
I0928 20:28:00.049767  8808 net.cpp:395] ReLU6 -> Convolution12 (in-place)
I0928 20:28:00.049767  8808 net.cpp:150] Setting up ReLU6
I0928 20:28:00.049767  8808 net.cpp:157] Top shape: 1 32 56 56 (100352)
I0928 20:28:00.049767  8808 net.cpp:165] Memory required for data: 36578468
I0928 20:28:00.049767  8808 layer_factory.cpp:58] Creating layer Convolution13
I0928 20:28:00.049767  8808 net.cpp:100] Creating Layer Convolution13
I0928 20:28:00.049767  8808 net.cpp:434] Convolution13 <- Convolution12
I0928 20:28:00.049767  8808 net.cpp:408] Convolution13 -> Convolution13
I0928 20:28:00.049767  8808 net.cpp:150] Setting up Convolution13
I0928 20:28:00.049767  8808 net.cpp:157] Top shape: 1 32 56 56 (100352)
I0928 20:28:00.049767  8808 net.cpp:165] Memory required for data: 36979876
I0928 20:28:00.049767  8808 layer_factory.cpp:58] Creating layer BatchNorm11
I0928 20:28:00.049767  8808 net.cpp:100] Creating Layer BatchNorm11
I0928 20:28:00.049767  8808 net.cpp:434] BatchNorm11 <- Convolution13
I0928 20:28:00.049767  8808 net.cpp:395] BatchNorm11 -> Convolution13 (in-place)
I0928 20:28:00.049767  8808 net.cpp:150] Setting up BatchNorm11
I0928 20:28:00.049767  8808 net.cpp:157] Top shape: 1 32 56 56 (100352)
I0928 20:28:00.049767  8808 net.cpp:165] Memory required for data: 37381284
I0928 20:28:00.049767  8808 layer_factory.cpp:58] Creating layer Scale11
I0928 20:28:00.049767  8808 net.cpp:100] Creating Layer Scale11
I0928 20:28:00.049767  8808 net.cpp:434] Scale11 <- Convolution13
I0928 20:28:00.049767  8808 net.cpp:395] Scale11 -> Convolution13 (in-place)
I0928 20:28:00.049767  8808 layer_factory.cpp:58] Creating layer Scale11
I0928 20:28:00.049767  8808 net.cpp:150] Setting up Scale11
I0928 20:28:00.049767  8808 net.cpp:157] Top shape: 1 32 56 56 (100352)
I0928 20:28:00.049767  8808 net.cpp:165] Memory required for data: 37782692
I0928 20:28:00.049767  8808 layer_factory.cpp:58] Creating layer Eltwise5
I0928 20:28:00.049767  8808 net.cpp:100] Creating Layer Eltwise5
I0928 20:28:00.049767  8808 net.cpp:434] Eltwise5 <- Eltwise4_Eltwise4_0_split_1
I0928 20:28:00.049767  8808 net.cpp:434] Eltwise5 <- Convolution13
I0928 20:28:00.049767  8808 net.cpp:408] Eltwise5 -> Eltwise5
I0928 20:28:00.049767  8808 net.cpp:150] Setting up Eltwise5
I0928 20:28:00.049767  8808 net.cpp:157] Top shape: 1 32 56 56 (100352)
I0928 20:28:00.049767  8808 net.cpp:165] Memory required for data: 38184100
I0928 20:28:00.049767  8808 layer_factory.cpp:58] Creating layer Eltwise5_Eltwise5_0_split
I0928 20:28:00.049767  8808 net.cpp:100] Creating Layer Eltwise5_Eltwise5_0_split
I0928 20:28:00.049767  8808 net.cpp:434] Eltwise5_Eltwise5_0_split <- Eltwise5
I0928 20:28:00.049767  8808 net.cpp:408] Eltwise5_Eltwise5_0_split -> Eltwise5_Eltwise5_0_split_0
I0928 20:28:00.049767  8808 net.cpp:408] Eltwise5_Eltwise5_0_split -> Eltwise5_Eltwise5_0_split_1
I0928 20:28:00.049767  8808 net.cpp:150] Setting up Eltwise5_Eltwise5_0_split
I0928 20:28:00.049767  8808 net.cpp:157] Top shape: 1 32 56 56 (100352)
I0928 20:28:00.049767  8808 net.cpp:157] Top shape: 1 32 56 56 (100352)
I0928 20:28:00.049767  8808 net.cpp:165] Memory required for data: 38986916
I0928 20:28:00.049767  8808 layer_factory.cpp:58] Creating layer Convolution14
I0928 20:28:00.049767  8808 net.cpp:100] Creating Layer Convolution14
I0928 20:28:00.049767  8808 net.cpp:434] Convolution14 <- Eltwise5_Eltwise5_0_split_0
I0928 20:28:00.049767  8808 net.cpp:408] Convolution14 -> Convolution14
I0928 20:28:00.049767  8808 net.cpp:150] Setting up Convolution14
I0928 20:28:00.065367  8808 net.cpp:157] Top shape: 1 32 56 56 (100352)
I0928 20:28:00.065367  8808 net.cpp:165] Memory required for data: 39388324
I0928 20:28:00.065367  8808 layer_factory.cpp:58] Creating layer BatchNorm12
I0928 20:28:00.065367  8808 net.cpp:100] Creating Layer BatchNorm12
I0928 20:28:00.065367  8808 net.cpp:434] BatchNorm12 <- Convolution14
I0928 20:28:00.065367  8808 net.cpp:395] BatchNorm12 -> Convolution14 (in-place)
I0928 20:28:00.065367  8808 net.cpp:150] Setting up BatchNorm12
I0928 20:28:00.065367  8808 net.cpp:157] Top shape: 1 32 56 56 (100352)
I0928 20:28:00.065367  8808 net.cpp:165] Memory required for data: 39789732
I0928 20:28:00.065367  8808 layer_factory.cpp:58] Creating layer Scale12
I0928 20:28:00.065367  8808 net.cpp:100] Creating Layer Scale12
I0928 20:28:00.065367  8808 net.cpp:434] Scale12 <- Convolution14
I0928 20:28:00.065367  8808 net.cpp:395] Scale12 -> Convolution14 (in-place)
I0928 20:28:00.065367  8808 layer_factory.cpp:58] Creating layer Scale12
I0928 20:28:00.065367  8808 net.cpp:150] Setting up Scale12
I0928 20:28:00.065367  8808 net.cpp:157] Top shape: 1 32 56 56 (100352)
I0928 20:28:00.065367  8808 net.cpp:165] Memory required for data: 40191140
I0928 20:28:00.065367  8808 layer_factory.cpp:58] Creating layer ReLU7
I0928 20:28:00.065367  8808 net.cpp:100] Creating Layer ReLU7
I0928 20:28:00.065367  8808 net.cpp:434] ReLU7 <- Convolution14
I0928 20:28:00.065367  8808 net.cpp:395] ReLU7 -> Convolution14 (in-place)
I0928 20:28:00.065367  8808 net.cpp:150] Setting up ReLU7
I0928 20:28:00.065367  8808 net.cpp:157] Top shape: 1 32 56 56 (100352)
I0928 20:28:00.065367  8808 net.cpp:165] Memory required for data: 40592548
I0928 20:28:00.065367  8808 layer_factory.cpp:58] Creating layer Convolution15
I0928 20:28:00.065367  8808 net.cpp:100] Creating Layer Convolution15
I0928 20:28:00.065367  8808 net.cpp:434] Convolution15 <- Convolution14
I0928 20:28:00.065367  8808 net.cpp:408] Convolution15 -> Convolution15
I0928 20:28:00.065367  8808 net.cpp:150] Setting up Convolution15
I0928 20:28:00.065367  8808 net.cpp:157] Top shape: 1 32 56 56 (100352)
I0928 20:28:00.065367  8808 net.cpp:165] Memory required for data: 40993956
I0928 20:28:00.065367  8808 layer_factory.cpp:58] Creating layer BatchNorm13
I0928 20:28:00.065367  8808 net.cpp:100] Creating Layer BatchNorm13
I0928 20:28:00.065367  8808 net.cpp:434] BatchNorm13 <- Convolution15
I0928 20:28:00.065367  8808 net.cpp:395] BatchNorm13 -> Convolution15 (in-place)
I0928 20:28:00.065367  8808 net.cpp:150] Setting up BatchNorm13
I0928 20:28:00.065367  8808 net.cpp:157] Top shape: 1 32 56 56 (100352)
I0928 20:28:00.065367  8808 net.cpp:165] Memory required for data: 41395364
I0928 20:28:00.065367  8808 layer_factory.cpp:58] Creating layer Scale13
I0928 20:28:00.065367  8808 net.cpp:100] Creating Layer Scale13
I0928 20:28:00.065367  8808 net.cpp:434] Scale13 <- Convolution15
I0928 20:28:00.065367  8808 net.cpp:395] Scale13 -> Convolution15 (in-place)
I0928 20:28:00.065367  8808 layer_factory.cpp:58] Creating layer Scale13
I0928 20:28:00.065367  8808 net.cpp:150] Setting up Scale13
I0928 20:28:00.065367  8808 net.cpp:157] Top shape: 1 32 56 56 (100352)
I0928 20:28:00.065367  8808 net.cpp:165] Memory required for data: 41796772
I0928 20:28:00.065367  8808 layer_factory.cpp:58] Creating layer Eltwise6
I0928 20:28:00.065367  8808 net.cpp:100] Creating Layer Eltwise6
I0928 20:28:00.065367  8808 net.cpp:434] Eltwise6 <- Eltwise5_Eltwise5_0_split_1
I0928 20:28:00.065367  8808 net.cpp:434] Eltwise6 <- Convolution15
I0928 20:28:00.065367  8808 net.cpp:408] Eltwise6 -> Eltwise6
I0928 20:28:00.065367  8808 net.cpp:150] Setting up Eltwise6
I0928 20:28:00.065367  8808 net.cpp:157] Top shape: 1 32 56 56 (100352)
I0928 20:28:00.065367  8808 net.cpp:165] Memory required for data: 42198180
I0928 20:28:00.065367  8808 layer_factory.cpp:58] Creating layer Eltwise6_Eltwise6_0_split
I0928 20:28:00.065367  8808 net.cpp:100] Creating Layer Eltwise6_Eltwise6_0_split
I0928 20:28:00.065367  8808 net.cpp:434] Eltwise6_Eltwise6_0_split <- Eltwise6
I0928 20:28:00.065367  8808 net.cpp:408] Eltwise6_Eltwise6_0_split -> Eltwise6_Eltwise6_0_split_0
I0928 20:28:00.065367  8808 net.cpp:408] Eltwise6_Eltwise6_0_split -> Eltwise6_Eltwise6_0_split_1
I0928 20:28:00.065367  8808 net.cpp:150] Setting up Eltwise6_Eltwise6_0_split
I0928 20:28:00.065367  8808 net.cpp:157] Top shape: 1 32 56 56 (100352)
I0928 20:28:00.065367  8808 net.cpp:157] Top shape: 1 32 56 56 (100352)
I0928 20:28:00.065367  8808 net.cpp:165] Memory required for data: 43000996
I0928 20:28:00.065367  8808 layer_factory.cpp:58] Creating layer Convolution16
I0928 20:28:00.065367  8808 net.cpp:100] Creating Layer Convolution16
I0928 20:28:00.065367  8808 net.cpp:434] Convolution16 <- Eltwise6_Eltwise6_0_split_0
I0928 20:28:00.065367  8808 net.cpp:408] Convolution16 -> Convolution16
I0928 20:28:00.065367  8808 net.cpp:150] Setting up Convolution16
I0928 20:28:00.065367  8808 net.cpp:157] Top shape: 1 64 28 28 (50176)
I0928 20:28:00.065367  8808 net.cpp:165] Memory required for data: 43201700
I0928 20:28:00.065367  8808 layer_factory.cpp:58] Creating layer BatchNorm14
I0928 20:28:00.065367  8808 net.cpp:100] Creating Layer BatchNorm14
I0928 20:28:00.065367  8808 net.cpp:434] BatchNorm14 <- Convolution16
I0928 20:28:00.065367  8808 net.cpp:395] BatchNorm14 -> Convolution16 (in-place)
I0928 20:28:00.065367  8808 net.cpp:150] Setting up BatchNorm14
I0928 20:28:00.065367  8808 net.cpp:157] Top shape: 1 64 28 28 (50176)
I0928 20:28:00.065367  8808 net.cpp:165] Memory required for data: 43402404
I0928 20:28:00.065367  8808 layer_factory.cpp:58] Creating layer Scale14
I0928 20:28:00.065367  8808 net.cpp:100] Creating Layer Scale14
I0928 20:28:00.065367  8808 net.cpp:434] Scale14 <- Convolution16
I0928 20:28:00.065367  8808 net.cpp:395] Scale14 -> Convolution16 (in-place)
I0928 20:28:00.065367  8808 layer_factory.cpp:58] Creating layer Scale14
I0928 20:28:00.065367  8808 net.cpp:150] Setting up Scale14
I0928 20:28:00.065367  8808 net.cpp:157] Top shape: 1 64 28 28 (50176)
I0928 20:28:00.065367  8808 net.cpp:165] Memory required for data: 43603108
I0928 20:28:00.065367  8808 layer_factory.cpp:58] Creating layer ReLU8
I0928 20:28:00.065367  8808 net.cpp:100] Creating Layer ReLU8
I0928 20:28:00.065367  8808 net.cpp:434] ReLU8 <- Convolution16
I0928 20:28:00.065367  8808 net.cpp:395] ReLU8 -> Convolution16 (in-place)
I0928 20:28:00.065367  8808 net.cpp:150] Setting up ReLU8
I0928 20:28:00.065367  8808 net.cpp:157] Top shape: 1 64 28 28 (50176)
I0928 20:28:00.065367  8808 net.cpp:165] Memory required for data: 43803812
I0928 20:28:00.065367  8808 layer_factory.cpp:58] Creating layer Convolution17
I0928 20:28:00.065367  8808 net.cpp:100] Creating Layer Convolution17
I0928 20:28:00.065367  8808 net.cpp:434] Convolution17 <- Convolution16
I0928 20:28:00.065367  8808 net.cpp:408] Convolution17 -> Convolution17
I0928 20:28:00.065367  8808 net.cpp:150] Setting up Convolution17
I0928 20:28:00.065367  8808 net.cpp:157] Top shape: 1 64 28 28 (50176)
I0928 20:28:00.065367  8808 net.cpp:165] Memory required for data: 44004516
I0928 20:28:00.065367  8808 layer_factory.cpp:58] Creating layer BatchNorm15
I0928 20:28:00.065367  8808 net.cpp:100] Creating Layer BatchNorm15
I0928 20:28:00.065367  8808 net.cpp:434] BatchNorm15 <- Convolution17
I0928 20:28:00.065367  8808 net.cpp:395] BatchNorm15 -> Convolution17 (in-place)
I0928 20:28:00.065367  8808 net.cpp:150] Setting up BatchNorm15
I0928 20:28:00.065367  8808 net.cpp:157] Top shape: 1 64 28 28 (50176)
I0928 20:28:00.065367  8808 net.cpp:165] Memory required for data: 44205220
I0928 20:28:00.065367  8808 layer_factory.cpp:58] Creating layer Scale15
I0928 20:28:00.065367  8808 net.cpp:100] Creating Layer Scale15
I0928 20:28:00.065367  8808 net.cpp:434] Scale15 <- Convolution17
I0928 20:28:00.065367  8808 net.cpp:395] Scale15 -> Convolution17 (in-place)
I0928 20:28:00.065367  8808 layer_factory.cpp:58] Creating layer Scale15
I0928 20:28:00.065367  8808 net.cpp:150] Setting up Scale15
I0928 20:28:00.065367  8808 net.cpp:157] Top shape: 1 64 28 28 (50176)
I0928 20:28:00.065367  8808 net.cpp:165] Memory required for data: 44405924
I0928 20:28:00.065367  8808 layer_factory.cpp:58] Creating layer Pooling4
I0928 20:28:00.065367  8808 net.cpp:100] Creating Layer Pooling4
I0928 20:28:00.065367  8808 net.cpp:434] Pooling4 <- Eltwise6_Eltwise6_0_split_1
I0928 20:28:00.065367  8808 net.cpp:408] Pooling4 -> Pooling4
I0928 20:28:00.065367  8808 net.cpp:150] Setting up Pooling4
I0928 20:28:00.065367  8808 net.cpp:157] Top shape: 1 32 28 28 (25088)
I0928 20:28:00.065367  8808 net.cpp:165] Memory required for data: 44506276
I0928 20:28:00.065367  8808 layer_factory.cpp:58] Creating layer PadChannel2
I0928 20:28:00.065367  8808 net.cpp:100] Creating Layer PadChannel2
I0928 20:28:00.065367  8808 net.cpp:434] PadChannel2 <- Pooling4
I0928 20:28:00.065367  8808 net.cpp:408] PadChannel2 -> PadChannel2
I0928 20:28:00.065367  8808 net.cpp:150] Setting up PadChannel2
I0928 20:28:00.065367  8808 net.cpp:157] Top shape: 1 64 28 28 (50176)
I0928 20:28:00.065367  8808 net.cpp:165] Memory required for data: 44706980
I0928 20:28:00.065367  8808 layer_factory.cpp:58] Creating layer Eltwise7
I0928 20:28:00.065367  8808 net.cpp:100] Creating Layer Eltwise7
I0928 20:28:00.065367  8808 net.cpp:434] Eltwise7 <- Convolution17
I0928 20:28:00.065367  8808 net.cpp:434] Eltwise7 <- PadChannel2
I0928 20:28:00.065367  8808 net.cpp:408] Eltwise7 -> Eltwise7
I0928 20:28:00.065367  8808 net.cpp:150] Setting up Eltwise7
I0928 20:28:00.065367  8808 net.cpp:157] Top shape: 1 64 28 28 (50176)
I0928 20:28:00.065367  8808 net.cpp:165] Memory required for data: 44907684
I0928 20:28:00.065367  8808 layer_factory.cpp:58] Creating layer Eltwise7_Eltwise7_0_split
I0928 20:28:00.065367  8808 net.cpp:100] Creating Layer Eltwise7_Eltwise7_0_split
I0928 20:28:00.080967  8808 net.cpp:434] Eltwise7_Eltwise7_0_split <- Eltwise7
I0928 20:28:00.080967  8808 net.cpp:408] Eltwise7_Eltwise7_0_split -> Eltwise7_Eltwise7_0_split_0
I0928 20:28:00.080967  8808 net.cpp:408] Eltwise7_Eltwise7_0_split -> Eltwise7_Eltwise7_0_split_1
I0928 20:28:00.080967  8808 net.cpp:150] Setting up Eltwise7_Eltwise7_0_split
I0928 20:28:00.080967  8808 net.cpp:157] Top shape: 1 64 28 28 (50176)
I0928 20:28:00.080967  8808 net.cpp:157] Top shape: 1 64 28 28 (50176)
I0928 20:28:00.080967  8808 net.cpp:165] Memory required for data: 45309092
I0928 20:28:00.080967  8808 layer_factory.cpp:58] Creating layer Convolution18
I0928 20:28:00.080967  8808 net.cpp:100] Creating Layer Convolution18
I0928 20:28:00.080967  8808 net.cpp:434] Convolution18 <- Eltwise7_Eltwise7_0_split_0
I0928 20:28:00.080967  8808 net.cpp:408] Convolution18 -> Convolution18
I0928 20:28:00.080967  8808 net.cpp:150] Setting up Convolution18
I0928 20:28:00.080967  8808 net.cpp:157] Top shape: 1 64 28 28 (50176)
I0928 20:28:00.080967  8808 net.cpp:165] Memory required for data: 45509796
I0928 20:28:00.080967  8808 layer_factory.cpp:58] Creating layer BatchNorm16
I0928 20:28:00.080967  8808 net.cpp:100] Creating Layer BatchNorm16
I0928 20:28:00.080967  8808 net.cpp:434] BatchNorm16 <- Convolution18
I0928 20:28:00.080967  8808 net.cpp:395] BatchNorm16 -> Convolution18 (in-place)
I0928 20:28:00.080967  8808 net.cpp:150] Setting up BatchNorm16
I0928 20:28:00.080967  8808 net.cpp:157] Top shape: 1 64 28 28 (50176)
I0928 20:28:00.080967  8808 net.cpp:165] Memory required for data: 45710500
I0928 20:28:00.080967  8808 layer_factory.cpp:58] Creating layer Scale16
I0928 20:28:00.080967  8808 net.cpp:100] Creating Layer Scale16
I0928 20:28:00.080967  8808 net.cpp:434] Scale16 <- Convolution18
I0928 20:28:00.080967  8808 net.cpp:395] Scale16 -> Convolution18 (in-place)
I0928 20:28:00.080967  8808 layer_factory.cpp:58] Creating layer Scale16
I0928 20:28:00.080967  8808 net.cpp:150] Setting up Scale16
I0928 20:28:00.080967  8808 net.cpp:157] Top shape: 1 64 28 28 (50176)
I0928 20:28:00.080967  8808 net.cpp:165] Memory required for data: 45911204
I0928 20:28:00.080967  8808 layer_factory.cpp:58] Creating layer ReLU9
I0928 20:28:00.080967  8808 net.cpp:100] Creating Layer ReLU9
I0928 20:28:00.080967  8808 net.cpp:434] ReLU9 <- Convolution18
I0928 20:28:00.080967  8808 net.cpp:395] ReLU9 -> Convolution18 (in-place)
I0928 20:28:00.080967  8808 net.cpp:150] Setting up ReLU9
I0928 20:28:00.080967  8808 net.cpp:157] Top shape: 1 64 28 28 (50176)
I0928 20:28:00.080967  8808 net.cpp:165] Memory required for data: 46111908
I0928 20:28:00.080967  8808 layer_factory.cpp:58] Creating layer Convolution19
I0928 20:28:00.080967  8808 net.cpp:100] Creating Layer Convolution19
I0928 20:28:00.080967  8808 net.cpp:434] Convolution19 <- Convolution18
I0928 20:28:00.080967  8808 net.cpp:408] Convolution19 -> Convolution19
I0928 20:28:00.080967  8808 net.cpp:150] Setting up Convolution19
I0928 20:28:00.080967  8808 net.cpp:157] Top shape: 1 64 28 28 (50176)
I0928 20:28:00.080967  8808 net.cpp:165] Memory required for data: 46312612
I0928 20:28:00.080967  8808 layer_factory.cpp:58] Creating layer BatchNorm17
I0928 20:28:00.080967  8808 net.cpp:100] Creating Layer BatchNorm17
I0928 20:28:00.080967  8808 net.cpp:434] BatchNorm17 <- Convolution19
I0928 20:28:00.080967  8808 net.cpp:395] BatchNorm17 -> Convolution19 (in-place)
I0928 20:28:00.080967  8808 net.cpp:150] Setting up BatchNorm17
I0928 20:28:00.080967  8808 net.cpp:157] Top shape: 1 64 28 28 (50176)
I0928 20:28:00.080967  8808 net.cpp:165] Memory required for data: 46513316
I0928 20:28:00.080967  8808 layer_factory.cpp:58] Creating layer Scale17
I0928 20:28:00.080967  8808 net.cpp:100] Creating Layer Scale17
I0928 20:28:00.080967  8808 net.cpp:434] Scale17 <- Convolution19
I0928 20:28:00.080967  8808 net.cpp:395] Scale17 -> Convolution19 (in-place)
I0928 20:28:00.080967  8808 layer_factory.cpp:58] Creating layer Scale17
I0928 20:28:00.080967  8808 net.cpp:150] Setting up Scale17
I0928 20:28:00.080967  8808 net.cpp:157] Top shape: 1 64 28 28 (50176)
I0928 20:28:00.080967  8808 net.cpp:165] Memory required for data: 46714020
I0928 20:28:00.080967  8808 layer_factory.cpp:58] Creating layer Eltwise8
I0928 20:28:00.080967  8808 net.cpp:100] Creating Layer Eltwise8
I0928 20:28:00.080967  8808 net.cpp:434] Eltwise8 <- Eltwise7_Eltwise7_0_split_1
I0928 20:28:00.080967  8808 net.cpp:434] Eltwise8 <- Convolution19
I0928 20:28:00.080967  8808 net.cpp:408] Eltwise8 -> Eltwise8
I0928 20:28:00.080967  8808 net.cpp:150] Setting up Eltwise8
I0928 20:28:00.080967  8808 net.cpp:157] Top shape: 1 64 28 28 (50176)
I0928 20:28:00.080967  8808 net.cpp:165] Memory required for data: 46914724
I0928 20:28:00.080967  8808 layer_factory.cpp:58] Creating layer Eltwise8_Eltwise8_0_split
I0928 20:28:00.080967  8808 net.cpp:100] Creating Layer Eltwise8_Eltwise8_0_split
I0928 20:28:00.080967  8808 net.cpp:434] Eltwise8_Eltwise8_0_split <- Eltwise8
I0928 20:28:00.080967  8808 net.cpp:408] Eltwise8_Eltwise8_0_split -> Eltwise8_Eltwise8_0_split_0
I0928 20:28:00.080967  8808 net.cpp:408] Eltwise8_Eltwise8_0_split -> Eltwise8_Eltwise8_0_split_1
I0928 20:28:00.080967  8808 net.cpp:150] Setting up Eltwise8_Eltwise8_0_split
I0928 20:28:00.080967  8808 net.cpp:157] Top shape: 1 64 28 28 (50176)
I0928 20:28:00.080967  8808 net.cpp:157] Top shape: 1 64 28 28 (50176)
I0928 20:28:00.080967  8808 net.cpp:165] Memory required for data: 47316132
I0928 20:28:00.080967  8808 layer_factory.cpp:58] Creating layer Convolution20
I0928 20:28:00.080967  8808 net.cpp:100] Creating Layer Convolution20
I0928 20:28:00.080967  8808 net.cpp:434] Convolution20 <- Eltwise8_Eltwise8_0_split_0
I0928 20:28:00.080967  8808 net.cpp:408] Convolution20 -> Convolution20
I0928 20:28:00.080967  8808 net.cpp:150] Setting up Convolution20
I0928 20:28:00.080967  8808 net.cpp:157] Top shape: 1 64 28 28 (50176)
I0928 20:28:00.080967  8808 net.cpp:165] Memory required for data: 47516836
I0928 20:28:00.080967  8808 layer_factory.cpp:58] Creating layer BatchNorm18
I0928 20:28:00.080967  8808 net.cpp:100] Creating Layer BatchNorm18
I0928 20:28:00.080967  8808 net.cpp:434] BatchNorm18 <- Convolution20
I0928 20:28:00.080967  8808 net.cpp:395] BatchNorm18 -> Convolution20 (in-place)
I0928 20:28:00.080967  8808 net.cpp:150] Setting up BatchNorm18
I0928 20:28:00.080967  8808 net.cpp:157] Top shape: 1 64 28 28 (50176)
I0928 20:28:00.080967  8808 net.cpp:165] Memory required for data: 47717540
I0928 20:28:00.080967  8808 layer_factory.cpp:58] Creating layer Scale18
I0928 20:28:00.080967  8808 net.cpp:100] Creating Layer Scale18
I0928 20:28:00.080967  8808 net.cpp:434] Scale18 <- Convolution20
I0928 20:28:00.080967  8808 net.cpp:395] Scale18 -> Convolution20 (in-place)
I0928 20:28:00.080967  8808 layer_factory.cpp:58] Creating layer Scale18
I0928 20:28:00.080967  8808 net.cpp:150] Setting up Scale18
I0928 20:28:00.080967  8808 net.cpp:157] Top shape: 1 64 28 28 (50176)
I0928 20:28:00.080967  8808 net.cpp:165] Memory required for data: 47918244
I0928 20:28:00.080967  8808 layer_factory.cpp:58] Creating layer ReLU10
I0928 20:28:00.080967  8808 net.cpp:100] Creating Layer ReLU10
I0928 20:28:00.080967  8808 net.cpp:434] ReLU10 <- Convolution20
I0928 20:28:00.080967  8808 net.cpp:395] ReLU10 -> Convolution20 (in-place)
I0928 20:28:00.080967  8808 net.cpp:150] Setting up ReLU10
I0928 20:28:00.080967  8808 net.cpp:157] Top shape: 1 64 28 28 (50176)
I0928 20:28:00.080967  8808 net.cpp:165] Memory required for data: 48118948
I0928 20:28:00.080967  8808 layer_factory.cpp:58] Creating layer Convolution21
I0928 20:28:00.080967  8808 net.cpp:100] Creating Layer Convolution21
I0928 20:28:00.080967  8808 net.cpp:434] Convolution21 <- Convolution20
I0928 20:28:00.080967  8808 net.cpp:408] Convolution21 -> Convolution21
I0928 20:28:00.080967  8808 net.cpp:150] Setting up Convolution21
I0928 20:28:00.080967  8808 net.cpp:157] Top shape: 1 64 28 28 (50176)
I0928 20:28:00.080967  8808 net.cpp:165] Memory required for data: 48319652
I0928 20:28:00.080967  8808 layer_factory.cpp:58] Creating layer BatchNorm19
I0928 20:28:00.080967  8808 net.cpp:100] Creating Layer BatchNorm19
I0928 20:28:00.080967  8808 net.cpp:434] BatchNorm19 <- Convolution21
I0928 20:28:00.080967  8808 net.cpp:395] BatchNorm19 -> Convolution21 (in-place)
I0928 20:28:00.080967  8808 net.cpp:150] Setting up BatchNorm19
I0928 20:28:00.080967  8808 net.cpp:157] Top shape: 1 64 28 28 (50176)
I0928 20:28:00.080967  8808 net.cpp:165] Memory required for data: 48520356
I0928 20:28:00.080967  8808 layer_factory.cpp:58] Creating layer Scale19
I0928 20:28:00.080967  8808 net.cpp:100] Creating Layer Scale19
I0928 20:28:00.080967  8808 net.cpp:434] Scale19 <- Convolution21
I0928 20:28:00.080967  8808 net.cpp:395] Scale19 -> Convolution21 (in-place)
I0928 20:28:00.080967  8808 layer_factory.cpp:58] Creating layer Scale19
I0928 20:28:00.080967  8808 net.cpp:150] Setting up Scale19
I0928 20:28:00.080967  8808 net.cpp:157] Top shape: 1 64 28 28 (50176)
I0928 20:28:00.080967  8808 net.cpp:165] Memory required for data: 48721060
I0928 20:28:00.080967  8808 layer_factory.cpp:58] Creating layer Eltwise9
I0928 20:28:00.080967  8808 net.cpp:100] Creating Layer Eltwise9
I0928 20:28:00.096567  8808 net.cpp:434] Eltwise9 <- Eltwise8_Eltwise8_0_split_1
I0928 20:28:00.096567  8808 net.cpp:434] Eltwise9 <- Convolution21
I0928 20:28:00.096567  8808 net.cpp:408] Eltwise9 -> Eltwise9
I0928 20:28:00.096567  8808 net.cpp:150] Setting up Eltwise9
I0928 20:28:00.096567  8808 net.cpp:157] Top shape: 1 64 28 28 (50176)
I0928 20:28:00.096567  8808 net.cpp:165] Memory required for data: 48921764
I0928 20:28:00.096567  8808 layer_factory.cpp:58] Creating layer Pooling5
I0928 20:28:00.096567  8808 net.cpp:100] Creating Layer Pooling5
I0928 20:28:00.096567  8808 net.cpp:434] Pooling5 <- Eltwise9
I0928 20:28:00.096567  8808 net.cpp:408] Pooling5 -> Pooling5
I0928 20:28:00.096567  8808 net.cpp:150] Setting up Pooling5
I0928 20:28:00.096567  8808 net.cpp:157] Top shape: 1 64 1 1 (64)
I0928 20:28:00.096567  8808 net.cpp:165] Memory required for data: 48922020
I0928 20:28:00.096567  8808 layer_factory.cpp:58] Creating layer InnerProduct4
I0928 20:28:00.096567  8808 net.cpp:100] Creating Layer InnerProduct4
I0928 20:28:00.096567  8808 net.cpp:434] InnerProduct4 <- Pooling5
I0928 20:28:00.096567  8808 net.cpp:408] InnerProduct4 -> InnerProduct4
I0928 20:28:00.096567  8808 net.cpp:150] Setting up InnerProduct4
I0928 20:28:00.096567  8808 net.cpp:157] Top shape: 1 2 (2)
I0928 20:28:00.096567  8808 net.cpp:165] Memory required for data: 48922028
I0928 20:28:00.096567  8808 layer_factory.cpp:58] Creating layer InnerProduct4_InnerProduct4_0_split
I0928 20:28:00.096567  8808 net.cpp:100] Creating Layer InnerProduct4_InnerProduct4_0_split
I0928 20:28:00.096567  8808 net.cpp:434] InnerProduct4_InnerProduct4_0_split <- InnerProduct4
I0928 20:28:00.096567  8808 net.cpp:408] InnerProduct4_InnerProduct4_0_split -> InnerProduct4_InnerProduct4_0_split_0
I0928 20:28:00.096567  8808 net.cpp:408] InnerProduct4_InnerProduct4_0_split -> InnerProduct4_InnerProduct4_0_split_1
I0928 20:28:00.096567  8808 net.cpp:150] Setting up InnerProduct4_InnerProduct4_0_split
I0928 20:28:00.096567  8808 net.cpp:157] Top shape: 1 2 (2)
I0928 20:28:00.096567  8808 net.cpp:157] Top shape: 1 2 (2)
I0928 20:28:00.096567  8808 net.cpp:165] Memory required for data: 48922044
I0928 20:28:00.096567  8808 layer_factory.cpp:58] Creating layer SoftmaxWithLoss1
I0928 20:28:00.096567  8808 net.cpp:100] Creating Layer SoftmaxWithLoss1
I0928 20:28:00.096567  8808 net.cpp:434] SoftmaxWithLoss1 <- InnerProduct4_InnerProduct4_0_split_0
I0928 20:28:00.096567  8808 net.cpp:434] SoftmaxWithLoss1 <- ImageData2_ImageData1_1_split_0
…
